src/rl_sar/models/a1_isaacgym/policy_flat.pt (torch, 79368 bytes, 8 tensors)

weight f4 [128, 48]
0.29007694 0.042088468 -0.1349822 0.22847189 0.20869994 -0.1945357 0.42818567 -1.0046023
0.12089757 -0.25820592 0.25966954 -0.0038845986 -0.5350163 0.6710243 0.031354815 -0.6200058
0.10090997 -0.3764302 0.44593337 0.26139086 0.14575249 0.90252733 -0.048704058 0.29351255
0.11839737 0.15402558 0.10757596 0.35442367 -0.003284039 -0.37613386 0.037716024 0.12040509
0.16054542 0.1413821 0.35545406 -0.09006894 0.12694371 -0.10409414 -0.10009565 0.053424962
0.007113471 0.10168762 -0.06919148 0.033349782 -0.096635036 0.008239311 -0.017080013 0.065946236
0.19835284 0.073277056 -0.3331703 -0.5144805 0.2784443 -0.29788637 0.5102091 -0.17000966
0.15262282 0.07512917 -0.03627936 -0.15237677 -0.56071246 0.2893006 -0.15702124 -0.47720012
0.519533 0.077337615 -0.2813968 0.45492637 0.6841137 -0.5508765 0.49141473 -0.64421874
-0.007581762 0.3150958 -0.114482686 -0.48023918 -0.20554101 0.10958233 -0.44823888 0.12359787
0.0005009179 -0.356896 -0.045432795 -0.16546749 -0.10011107 0.07763673 0.12806328 -0.12591927
0.08884798 -0.060033277 0.01931884 0.10919943 0.013855933 0.0139222285 -0.13261577 0.10185204
-0.019290203 0.13466622 0.038619623 0.31458804 -0.74803644 0.29643422 -0.72962534 -0.61370796
-0.0038987075 -0.23427433 0.11548791 -1.5519586 -0.51902497 0.24598682 0.68846005 0.9465114
-0.36458984 -0.24498604 0.23774533 -0.76939666 -0.11520852 -0.47263348 0.36752453 -0.14201443
0.044527676 -0.020787977 0.51380265 0.06650493 -0.26395932 0.2455025 -0.29686755 -0.011515284
0.039893944 0.15116625 -0.05108696 0.05961414 -0.070162244 0.06555853 -0.057274014 -0.20367593
0.06707416 0.039880015 -0.14586823 0.10217959 -0.094974205 0.22355905 0.07116047 -0.058317445
-0.336819 0.12716143 0.06059255 0.52931327 -0.1347078 -0.36133727 -0.18420349 -0.014417435
0.047705855 0.12382043 -0.019970229 -0.043317184 -0.14769061 -0.7183848 0.17423324 -0.12291042
-0.7767775 -0.048937038 0.29277903 0.08200869 0.035395756 0.85968655 -0.41296744 0.3914082
0.57682836 -0.111925445 0.33522716 0.44131246 -0.8398761 -0.10224643 0.14541514 -0.35115373
-0.14902835 0.6404706 0.26537034 -0.11778347 0.114177294 0.09615538 0.0012001367 0.093545005
-0.06154507 -0.05925093 -0.1450277 -0.2029357 -0.09362005 -0.020667246 0.117541716 -0.25701013
0.050747924 -0.05922963 0.266463 0.041451313 -0.327515 0.021346299 -0.3059926 -0.32972655
0.12202412 -0.2465505 0.028027577 0.33041522 -0.51364547 -0.24854599 -0.022386199 -0.43401778
-0.078713834 0.13728319 -0.051547166 -1.026705 -0.07039577 -0.23185708 -0.123297185 -0.15078995
-0.054930925 -0.07889301 -0.46452937 0.06335014 -0.49663562 -0.28548604 -0.07065 -0.44866505
-0.108913645 -0.06960834 -0.24225102 -0.04359598 0.07169753 -0.15316959 -0.00655555 0.025671178
0.029115885 0.120843485 -0.10942876 -0.13730586 -0.066269286 0.08697464 -0.07396491 -0.017047107
0.28987125 0.066054724 -0.12061201 -0.08556813 0.5998634 0.57820195 -0.18246038 0.5150915
0.2734158 -0.47706947 0.06978817 -0.9479718 0.032277506 0.37189353 0.3989199 0.11549402
00000000: f784 943e f564 2c3d c638 0abe 89f4 693e
00000010: 70b5 553e 5e34 47be 273b db3e cf96 80bf
00000020: 2599 f73d 9133 84be 68f3 843e c094 7ebb
00000030: d4f6 08bf 40c8 2b3f e86d 003d b3b8 1ebf
00000040: e3a9 ce3d 76bb c0be 6151 e43e 06d5 853e
00000050: 2440 153e 080c 673f e87d 47bd 4747 963e
00000060: 527a f23d e2b8 1d3e c950 dc3d 0577 b53e
00000070: 0839 57bb 9e94 c0be 1e7c 1a3d f296 f63d
00000080: 0566 243e 78c6 103e 13fe b53e 1076 b8bd
00000090: 88fd 013e 4f2f d5bd f3fe ccbd 22d4 5a3d
000000a0: 1f18 e93b 9941 d03d 43b4 8dbd c899 083d
000000b0: 97e8 c5bd 2dfe 063c 62eb 8bbc d20e 873d
000000c0: 021d 4b3e 4812 963d 4c95 aabe feb4 03bf
000000d0: 4090 8e3e 9084 98be 109d 023f 0317 2ebe
000000e0: 2849 1c3e 53dd 993d ab99 14bd a808 1cbe
000000f0: da8a 0fbf 351f 943e 2dca 20be 9353 f4be
00000100: 1d00 053f 2f63 9e3d 3e13 90be 1cec e83e
00000110: 1322 2f3f 3e06 0dbf b69a fb3e 85eb 24bf
00000120: 6e70 f8bb 3d54 a13e e675 eabd e9e1 f5be
00000130: 5879 52be b36c e03d 917f e5be e120 fd3d
00000140: 0850 033a 13bb b6be bd17 3abd 4f70 29be
00000150: 0807 cdbd 0200 9f3d 0523 033e fbf0 00be
00000160: eef5 b53d 74e5 75bd 8b42 9e3c f3a3 df3d
00000170: ff03 633c 0f1a 643c 6ecc 07be cd97 d03d
00000180: 7d06 9ebc f1e5 093e 9c2f 1e3d af11 a13e
00000190: 517f 3fbf 3ac6 973e bac8 3abf f71b 1dbf
000001a0: 7581 7fbb 9ce5 6fbe ed84 ec3d 94a6 c6bf
000001b0: d2de 04bf f8e3 7b3e eb3e 303f 924e 723f
000001c0: 85ab babe 9fdd 7abe 8373 733e 2ef7 44bf
000001d0: 72f2 ebbd 04fd f1be 2d2c bc3e 3b6c 11be
000001e0: a762 363d 8c4b aabc 9288 033f bd33 883d
000001f0: ad25 87be 0265 7b3e 06ff 97be 9aaa 3cbc
00000200: d567 233d 53cb 1a3e 8f40 51bd f52d 743d
00000210: 39b1 8fbd 8d43 863d 2898 6abd 6c90 50be
00000220: 2d5e 893d 3a59 233d 7b5e 15be 8843 d13d
00000230: d681 c2bd aaec 643e 95bc 913d 46de 6ebd
00000240: 8a73 acbe 9b36 023e e52f 783d 1381 073f
00000250: d7f0 09be 3301 b9be d79f 3cbe 1b37 6cbc
00000260: 3767 433d 9195 fd3d 9b98 a3bc 5c6d 31bd
00000270: 353c 17be 11e8 37bf 336a 323e 75b8 fbbd
00000280: e4da 46bf 3472 48bd 22e7 953e 2cf4 a73d
00000290: 24fb 103d 6b14 5c3f 7870 d3be a866 c83e
000002a0: 06ab 133f 2b39 e5bd e5a2 ab3e b5f3 e13e
000002b0: 1f02 57bf 9466 d1bd b5e7 143e 6cca b3be
000002c0: e39a 18be e2f5 233f 9fde 873e 7638 f1bd
000002d0: c9d5 e93d 1ded c43d e84d 9d3a 8694 bf3d
000002e0: af16 7cbd 1ab1 72bd 2482 14be 60ce 4fbe
000002f0: debb bfbd 5b4e a9bc b6b9 f03d d596 83be
00000300: 0edd 4f3d c59a 72bd d76d 883e dac8 293d
00000310: 0cb0 a7be 6fde ae3c 10ab 9cbe ebd1 a8be
00000320: c8e7 f93d bc77 7cbe 179a e53c 2f2c a93e
00000330: 457e 03bf d782 7ebe 4363 b7bc 9437 debe
00000340: b834 a1bd f793 0c3e 1f23 53bd 126b 83bf
00000350: a82b 90bd f16b 6dbe 3c83 fcbd ae68 1abe
00000360: 40ff 60bd a992 a1bd cbd6 edbe b8bd 813d
00000370: 0647 febe 3a2b 92be f2b0 90bd 6db7 e5be
00000380: 1e0e dfbd d18e 8ebd a710 78be b391 32bd
00000390: 28d6 923d 7dd8 1cbe f0cf d6bb 5d4c d23c
000003a0: 7084 ee3c ca7c f73d 301c e0bd e899 0cbe
000003b0: 31b8 87bd c31f b23d ea7a 97bd 60a6 8bbc
000003c0: 016a 943e b347 873d 6e03 f7bd 583e afbd
000003d0: a690 193f 0b05 143f e5d6 3abe 09dd 033f
000003e0: 28fd 8b3e 7342 f4be 1aed 8e3d 48ae 72bf
000003f0: 6b35 043d d468 be3e 3b3f cc3e 2188 ec3d

bias f4 [128]
0.09354057 -0.24124761 0.052862868 -0.11000812 -0.07372773 -0.45627347 -0.053961404 -0.2479354
-0.16286838 -0.22646038 -0.30280453 0.1992157 -0.03577618 0.13691306 0.06471297 -0.072408535
-0.025652112 -0.26078674 -0.15015404 -0.030129971 -0.0459929 -0.08667225 -0.27164924 0.21706755
0.38888568 0.17746854 -0.2278677 -0.09454225 -0.14135867 -0.03422964 0.14677301 0.029153531
-0.04979955 0.0024879677 0.026952587 0.0758481 0.072728045 -0.08194677 0.38462126 -0.1382476
-0.04499845 0.14429064 0.18273708 -0.04777409 -0.035519984 -0.2561862 0.05242391 -0.16757217
0.050980374 0.011282143 0.100933336 0.14175612 -0.09036812 0.014166717 -0.1362304 -0.23076163
-0.07315105 -0.27074832 0.019822996 -0.02593942 -0.25752974 0.07319048 -0.11307421 -0.027692277
0.08657219 -0.096082315 -0.2638637 -0.0850004 -0.2258499 -0.16122139 0.05508502 0.06489395
-0.22258747 0.14120343 -0.3130429 0.1488625 0.10207252 -0.034677304 -0.114759155 -0.09700835
-0.0055507985 -0.1056828 -0.10327581 -0.13215531 -0.116424166 0.014394209 0.1345494 -0.2192108
-0.19692747 -0.073016174 0.07966414 -0.18406442 -0.23546599 -0.1639294 0.014709267 -0.07183184
-0.23551747 0.054782476 -0.07757345 -0.32666782 0.022301316 -0.086779214 -0.040443487 -0.23519282
-0.20046036 0.023194086 -0.15052891 -0.2856317 -0.29824215 -0.07471844 -0.1490395 0.20155197
0.14707266 0.0340832 -0.04669728 -0.40693775 -0.19815734 -0.11283794 0.018422004 0.070981875
-0.1372192 0.3927808 0.039000288 -0.32076508 -0.41348952 -0.19751571 -0.050132334 -0.17981909
00000000: 3392 bf3d 9d09 77be bc86 583d f04b e1bd
00000010: 90fe 96bd ad9c e9be a206 5dbd c7e2 7dbe
00000020: f8c6 26be 3be5 67be 3209 9bbe 33ff 4b3e
00000030: 0b8a 12bd f032 0c3e 3c88 843d ed4a 94bd
00000040: 6124 d2bc d785 85be fbc1 19be 21d3 f6bc
00000050: 0d63 3cbd 3881 b1bd 9c15 8bbe f546 5e3e
00000060: 061c c73e 50ba 353e 2656 69be 5e9f c1bd
00000070: 54c0 10be 6134 0cbd aa4b 163e 63d3 ee3c
00000080: 9dfa 4bbd 2c0d 233b accb dc3c 4056 9b3d
00000090: 71f2 943d b5d3 a7bd 14ed c43e c790 0dbe
000000a0: 4b50 38bd edc0 133e 6e1f 3b3e c4ae 43bd
000000b0: 677d 11bd d62a 83be 74ba 563d 0a98 2bbe
000000c0: ccd0 503d bdd8 383c 23b6 ce3d 8428 113e
000000d0: ec12 b9bd 851b 683c fb7f 0bbe c74c 6cbe
000000e0: 38d0 95bd 869f 8abe d663 a23c e87e d4bc
000000f0: f0da 83be e4e4 953d 7493 e7bd eada e2bc
00000100: c34c b13d cec6 c4bd 2519 87be b114 aebd
00000110: 3245 67be 3817 25be d4a0 613d 1fe7 843d
00000120: f8ed 63be a297 103e 2947 a0be 696f 183e
00000130: 660b d13d ca09 0ebd d906 ebbd 50ac c6bd
00000140: 79e3 b5bb 3970 d8bd 4582 d3bd b953 07be
00000150: cb6f eebd b0d5 6b3c 51c7 093e cc78 60be
00000160: 5ba7 49be 8189 95bd f426 a33d 627b 3cbe
00000170: ff1d 71be 1cdd 27be 23ff 703c 921c 93bd
00000180: 7e2b 71be 9763 603d d4de 9ebd 0141 a7be
00000190: 40b1 b63c 4db9 b1bd 12a8 25bd 63d6 70be
000001a0: 7b45 4dbe 8601 be3c 4024 1abe 513e 92be
000001b0: 32b3 98be fb05 99bd d09d 18be a463 4e3e
000001c0: 379a 163e d39a 0b3d a645 3fbd 255a d0be
000001d0: c2e9 4abe 9417 e7bd bee9 963c f25e 913d
000001e0: 3183 0cbe 911a c93e c4be 1f3d 523b a4be
000001f0: e6b4 d3be 8f41 4abe 9057 4dbd 7f22 38be

weight f4 [64, 128]
0.22526395 -0.041728623 -0.042988613 -0.051068228 -0.2550271 0.11487167 -0.08116948 -0.05237555
-0.12561388 0.06733973 0.06488717 -0.36148852 -0.2228071 -0.07004875 -0.20988634 0.12402535
0.08712164 0.06884826 -0.005651613 0.14844225 -0.056237247 -0.24879535 -0.1765138 -0.0811789
-0.032574475 -0.35834044 0.06560476 0.16679889 0.27184743 -0.21200736 -0.08105127 -0.042587496
-0.17963557 0.14884976 0.095945485 0.10939111 0.32648343 -0.20268731 -0.11960906 -0.071319014
-0.08141542 0.04385052 0.017630324 0.10691248 -0.035600666 -0.13952754 0.025040567 -0.26231822
-0.16589917 -0.13224222 -0.16585992 0.09175501 0.3667991 0.18078548 -0.14308073 0.11012073
-0.017878456 0.082159325 -0.13619886 0.1394401 -0.27286148 -0.10334282 -0.0739142 -0.32955664
-0.3134237 -0.03682648 0.09000587 -0.008565877 0.13765132 -0.1169582 -0.12104735 -0.105969064
-0.14638022 -0.16607067 0.05328108 0.16536407 -0.025708385 -0.22933778 0.28325716 -0.07695344
-0.49550503 -0.2709244 0.28463456 0.072989054 -0.107477695 0.14086203 -0.043834973 -0.078873225
-0.21904667 0.0024618085 0.021348875 -0.27145964 0.04166258 0.07399434 0.15498766 -0.23990448
-0.00127063 -0.00939357 -0.28079897 0.33211753 -0.011235385 0.036058363 -0.07360397 0.06377473
-0.051417224 -0.03624384 -0.019383224 -0.047443435 -0.004713518 -0.3775756 0.05885796 -0.28435168
0.06540327 -0.10123799 -0.13324055 -0.09734128 0.16480969 -0.0120885605 -0.17548981 0.2459785
0.23278604 -0.26385173 0.13578472 0.011942831 0.038782056 -0.040326767 0.19432168 0.18137997
0.18231794 0.14926295 0.026911577 0.08029366 -0.24042395 -0.36339343 -0.34856457 -0.10093857
-0.07528679 -0.30035394 -0.20535119 -0.27037144 0.04610521 -0.4486997 0.0004372397 -0.12094021
-0.37806082 -0.1464503 -0.05061256 -0.2421635 -0.04426422 0.155331 0.1371423 -0.16447338
-0.13864937 -0.45536372 -0.10899485 -0.15224947 -0.003891089 0.07941621 -0.2600785 -0.12156935
-0.2208915 -0.079319954 0.019425916 -0.18062556 0.13884877 -0.1665275 0.13879438 -0.05192212
0.10428891 -0.15078746 -0.15090278 -0.08743668 -0.104354315 -0.04349482 -0.6041478 -0.08863952
0.06754704 0.28201026 -0.26894873 -0.34916815 -0.26564845 0.097121745 -0.062803686 0.07938969
0.13204692 -0.07951036 -0.34767133 -0.012382247 -0.00965232 0.07592188 -0.009088769 -0.069665976
-0.17586677 -0.015754486 -0.14012222 0.048196167 -0.08802027 -0.14977746 0.11883877 -0.09274429
0.003179436 -0.20121478 0.18803857 -0.1250297 -0.16243435 -0.055744767 0.04823379 -0.24177419
-0.004124518 -0.506371 -0.109581694 -0.04512749 0.031440556 -0.19600657 -0.07471803 0.14414066
0.28544432 -0.106962785 0.11314261 -0.061829995 0.16766322 -0.068996064 0.03151683 0.075844795
0.20472094 -0.14679767 -0.046441697 0.07442616 0.08057477 0.03442894 -0.03507636 -0.09785808
0.16791838 -0.10679094 -0.037432443 -0.12713695 -0.109941125 0.005711453 -0.16097601 -0.15730745
-0.24219304 -0.26563445 -0.18057013 -0.17108503 0.16674508 0.031052457 0.060582772 -0.2562115
-0.052501924 0.002132529 0.09802186 -0.18492089 -0.11793015 0.058839403 -0.013685421 -0.16394503
00000000: 98ab 663e a2eb 2abd d414 30bd eb2c 51bd
00000010: e992 82be d741 eb3d 2f3c a6bd bf87 56bd
00000020: eda0 00be 6ae9 893d 91e3 843d 0615 b9be
00000030: 8b27 64be b875 8fbd 72ec 56be 0101 fe3d
00000040: d56c b23d 5100 8d3d 2b31 b9bb 3f01 183e
00000050: 0759 66bd 35c4 7ebe 09c0 34be 2041 a6bd
00000060: d06c 05bd 6678 b7be ca5b 863d 54cd 2a3e
00000070: 962f 8b3e 7518 59be 35fe a5bd 3a70 2ebd
00000080: 63f2 37be 126c 183e 117f c43d 7208 e03d
00000090: d628 a73e 438d 4fbe 98f5 f4bd b40f 92bd
000000a0: 21bd a6bd 9a9c 333d 786d 903c eef4 da3d
000000b0: 01d2 11bd 4fe0 0ebe e021 cd3c 934e 86be
000000c0: 79e1 29be 816a 07be 2fd7 29be 0dea bb3d
000000d0: 17cd bb3e d41f 393e c183 12be fa86 e13d
000000e0: d775 92bc 2643 a83d b777 0bbe 63c9 0e3e
000000f0: 80b4 8bbe 67a5 d3bd 5460 97bd a6bb a8be
00000100: 1279 a0be 5dd7 16bd ff54 b83d e457 0cbc
00000110: 78f4 0c3e c887 efbd ace7 f7bd 4f06 d9bd
00000120: b2e4 15be 6e0e 2abe 433d 5a3d 3355 293e
00000130: 649a d2bc 86d7 6abe 1507 913e c499 9dbd
00000140: d6b2 fdbe 9ab6 8abe 9fbb 913e 497b 953d
00000150: 441d dcbd 233e 103e 4d8c 33bd 4988 a1bd
00000160: c54d 60be 4b56 213b d6e3 ae3c c2fc 8abe
00000170: 62a6 2a3d 588a 973d 16b5 1e3e 85a9 75be
00000180: 458b a6ba 7de7 19bc e2c4 8fbe 4f0b aa3e
00000190: 9f14 38bc efb1 133d aebd 96bd 539c 823d
000001a0: de9a 52bd 6c74 14bd 91c9 9ebc 0c54 42bd
000001b0: db73 9abb 9751 c1be 0b15 713d 8b96 91be
000001c0: 26f2 853d dd55 cfbd 3670 08be dd5a c7bd
000001d0: dfc3 283e 190f 46bc 9ab3 33be cae1 7b3e
000001e0: 775f 6e3e 9317 87be 260b 0b3e ddab 433c
000001f0: efd9 1e3d ae2d 25bd 43fc 463e acbb 393e
00000200: 8eb1 3a3e 63d8 183e ab75 dc3c 0171 a43d
00000210: b231 76be b40e babe 0e77 b2be e2b8 cebd
00000220: f62f 9abd fec7 99be 9547 52be 206e 8abe
00000230: d1d8 3c3d f8bb e5be 523d e539 80af f7bd
00000240: 3091 c1be 11f7 15be 1e4f 4fbd b5f9 77be
00000250: 664e 35bd 170f 1f3e 086f 0c3e b66b 28be
00000260: 1afa 0dbe 6f25 e9be b138 dfbd 49e7 1bbe
00000270: a401 7fbb f7a4 a23d 0229 85be 5af9 f8bd
00000280: 6231 62be 8072 a2bd 1923 9f3c e8f5 38be
00000290: 5f2e 0e3e 2f86 2abe 1d20 0e3e 4aac 54bd
000002a0: 6d95 d53d 0768 1abe 4286 1abe 0112 b3bd
000002b0: b7b7 d5bd a027 32bd 6ea9 1abf a388 b5bd
000002c0: 1a56 8a3d a663 903e a6b3 89be 2bc6 b2be
000002d0: 1303 88be c4e7 c63d 389f 80bd 1097 a23d
000002e0: 4f37 073e 54d6 a2bd fa01 b2be e8de 4abc
000002f0: c424 1ebc ee7c 9b3d 0fe9 14bc 09ad 8ebd
00000300: 6b16 34be 8d0f 81bc 337c 0fbe 5869 453d
00000310: f943 b4bd 435f 19be be61 f33d b8f0 bdbd
00000320: 165e 503b 3f0b 4ebe 2f8d 403e c907 00be
00000330: 3155 26be a054 64bd cb90 453d a793 77be
00000340: f726 87bb 88a1 01bf 5e6c e0bd 9ad7 38bd
00000350: d0c7 003d f2b5 48be c405 99bd 9c99 133e
00000360: c225 923e 4e0f dbbd 50b7 e73d 7341 7dbd
00000370: e8af 2b3e cf4d 8dbd cb17 013d 8454 9b3d
00000380: 5ea2 513e 2152 16be a639 3ebd be6c 983d
00000390: 6304 a53d 5c05 0d3d 3bac 0fbd d169 c8bd
000003a0: ccf2 2b3e 35b5 dabd c352 19bd 3030 02be
000003b0: d028 e1bd 2427 bb3b e5d6 24be 3415 21be
000003c0: 7401 78be 3d01 88be 60e7 38be ea30 2fbe
000003d0: 39bf 2a3e b961 fe3c a425 783d 272e 83be
000003e0: 420c 57bd e6c1 0b3b afbf c83d e75b 3dbe
000003f0: 5d85 f1bd 9601 713d d138 60bc 35e1 27be

bias f4 [64]
-0.15179978 -0.12546685 -0.08331058 -0.34211484 -0.22847818 -0.04098797 -0.078501366 0.050465934
-0.03922588 -0.23412639 -0.16499221 0.018697316 -0.24741074 -0.23385394 -0.24247259 0.014371765
-0.13318534 -0.13020565 -0.07777247 -0.18261091 -0.047387745 0.15677562 0.029174212 -0.14050052
-0.34525132 0.060453378 -0.31420833 -0.19695929 -0.034347504 -0.15278791 0.05220251 -0.2398013
-0.26660383 -0.16574718 -0.16930652 -0.030730348 -0.29986763 -0.14661978 -0.035829764 -0.09280999
-0.15752704 0.07658086 0.16475101 -0.006308157 -0.054863267 -0.29832774 -0.015016195 -0.23958373
0.15879817 -0.032326873 -0.1548734 -0.3040174 -0.26562524 -0.051960792 -0.12990755 -0.3049456
0.08050617 -0.2170394 -0.11868027 -0.014744798 -0.2688554 -0.11812728 -0.1204016 -0.040786155
00000000: 6771 1bbe 627a 00be bd9e aabd ad29 afbe
00000010: 2ff6 69be 00e3 27bd 53c5 a0bd 5eb5 4e3d
00000020: 51ab 20bd d4be 6fbe b8f3 28be 1d2b 993c
00000030: 3e59 7dbe 6877 6fbe bc4a 78be 8d77 6b3c
00000040: bd61 08be a154 05be 2c47 9fbd 5bfe 3abe
00000050: a719 42bd ca89 203e c2fe ee3c 5edf 0fbe
00000060: c8c4 b0be f69d 773d eadf a0be b2af 49be
00000070: f8af 0cbd 6f74 1cbe 4dd2 553d 798e 75be
00000080: 4c80 88be a1b9 29be b05e 2dbe 36be fbbc
00000090: 4088 99be 7f23 16be 3bc2 12bd 2a13 bebd
000000a0: c54e 21be 6dd6 9c3d 7db4 283e a8b4 cebb
000000b0: 4eb8 60bd 6abe 98be 7d06 76bc 7055 75be
000000c0: fd9b 223e 2f69 04bd 2297 1ebe 2ba8 9bbe
000000d0: 0800 88be d7d4 54bd 7c06 05be d421 9cbe
000000e0: 6be0 a43d 943f 5ebe a40e f3bd 2a94 71bc
000000f0: 6aa7 89be b7ec f1bd 1d95 f6bd 620f 27bd

weight f4 [32, 64]
0.06228992 0.1180486 0.14097919 0.1494658 -0.17752142 -0.30728477 0.05883097 -0.3370737
-0.030296823 -0.045807555 0.068826295 -0.106990606 -0.074976355 -0.25640547 -0.16646333 -0.23983024
0.026927004 -0.023336552 0.115349025 0.24162549 -0.061554406 -0.023304082 0.19887325 0.15648025
-0.018296715 0.36515325 -0.039853673 -0.039654016 0.027126702 -0.27145436 -0.18148708 -0.022478025
0.20601909 -0.19440185 -0.27949497 0.05614195 0.1364177 0.24846733 0.16807762 0.11929816
-0.108015224 0.10473533 -0.22395974 -0.28237444 -0.029359091 -0.047120772 -0.017413551 -0.026257144
0.0010724267 -0.044749144 -0.1934476 0.24193071 -0.07254083 -0.17119187 0.10547948 -0.113220304
0.018175125 -0.17526819 0.07609198 -0.07228151 -0.006758669 0.2478805 -0.13333213 -0.13997097
-0.28547466 -0.09010937 -0.038928956 -0.16700608 0.10745598 -0.20084982 0.20769982 -0.19999607
0.17255165 -0.028196199 0.23887277 0.1215559 -0.09491748 -0.14395842 0.20943081 0.24127561
-0.12834421 -0.3943841 -0.06945919 0.037525702 -0.18383716 -0.0009456888 -0.0891316 0.072991304
0.2805275 0.016291697 0.05409199 -0.014276109 -0.046945337 -0.33734286 -0.09515042 -0.46933603
0.2539714 0.091867514 -0.05391 -0.051160675 0.13422213 -0.20361324 0.062647216 -0.15606129
-0.020254692 -0.27016363 0.028150208 0.057503086 -0.0068874154 -0.39770165 -0.040034972 0.23928481
0.106682464 -0.032840908 0.28680527 -0.2334143 0.061473656 0.24499056 0.029844899 0.03993687
-0.15656997 0.038376816 0.20394234 0.15133917 0.18133722 -0.190204 0.11659482 -0.1373724
0.016747627 -0.09764111 -0.093822636 0.07438894 -0.03202357 -0.01004612 -0.184975 0.061640956
0.12486276 0.019350357 -0.1865801 -0.03487119 -0.12088904 0.03392337 0.18150811 0.040736075
-0.07389632 0.0033641104 0.16429302 -0.09696497 -0.10139735 -0.034683533 0.03215366 0.15939476
-0.20837408 -0.19022822 0.0021042828 -0.076312594 0.2840785 0.29323566 -0.0053889505 0.035337534
0.035212226 0.06635242 0.20817594 0.2979591 0.0131776035 0.075192034 -0.1710146 0.00505883
0.053979397 -0.006684506 -0.110450625 0.25253555 -0.114223346 -0.020427492 -0.050552987 0.021338642
-0.08385341 -0.05145932 0.031045612 0.16108795 -0.26901335 -0.25938392 0.30307868 -0.20863436
-0.006999832 -0.07690694 0.2156839 -0.059030436 0.12925555 0.05388957 -0.3062298 0.27215433
0.12366483 0.04507759 0.0032348977 -0.12840018 0.11345177 -0.07165066 0.053002883 0.053533968
-0.01935499 0.009771204 -0.025342526 -0.1099489 -0.023068305 0.106069565 -0.24471897 0.07961775
0.042599678 0.022311656 -0.0024525297 -0.20845608 0.021989623 -0.05189489 0.2424315 -0.054549612
0.16238423 0.017297106 0.114061534 -0.2569708 0.08697452 -0.328081 0.21980388 0.09184851
-0.005780401 -0.15058526 -0.10892985 -0.34562802 0.033181272 -0.1592357 -0.1660895 -0.15629826
-0.11270649 0.05784712 0.10007226 -0.026712865 0.03526206 0.14708081 -0.21976332 -0.050958164
-0.41064265 -0.15434355 -0.042554967 -0.038238615 -0.023183946 -0.009063103 -0.12906611 0.0147340335
-0.17628416 0.16859688 -0.02316544 -0.15250047 -0.06554627 -0.16882916 0.10549225 -0.2222395
00000000: b723 7f3d 77c3 f13d d95c 103e 900d 193e
00000010: 2dc8 35be 6e54 9dbe bef8 703d ed94 acbe
00000020: 0b31 f8bc b4a0 3bbd cdf4 8c3d e41d dbbd
00000030: 348d 99bd 9447 83be 5d75 2abe 0f96 75be
00000040: 0596 dc3c 4c2c bfbc 1c3c ec3d ac6c 773e
00000050: 7920 7cbd 34e8 bebc 6ea5 4b3e 5c3c 203e
00000060: fee2 95bc 5ef5 ba3e 9b3d 23bd 406c 22bd
00000070: d138 de3c 11fc 8abe c0d7 39be d623 b8bc
00000080: abf6 523e 4711 47be f719 8fbe 1af5 653d
00000090: 15b1 0b3e 386e 7e3e 8a1c 2c3e 9852 f43d
000000a0: 1637 ddbd 7a7f d63d b455 65be 6293 90be
000000b0: 7a82 f0bc b601 41bd dda6 8ebc 3919 d7bc
000000c0: ab90 8c3a e14a 37bd 2117 46be afbc 773e
000000d0: 4990 94bd ec4c 2fbe a005 d83d 0ce0 e7bd
000000e0: 00e4 943c 8179 33be 1dd6 9b3d 5408 94bd
000000f0: d377 ddbb 63d4 7d3e 3888 08be 8d54 0fbe
00000100: bc29 92be 438b b8bd f873 1fbd a403 2bbe
00000110: e111 dc3d 93ab 4dbe 43af 543e c5cb 4cbe
00000120: 61b1 303e b7fb e6bc 109b 743e 4df2 f83d
00000130: 1964 c2bd d669 13be 0875 563e f410 773e
00000140: aa6c 03be b6ec c9be 9f40 8ebd 8db4 193d
00000150: cf3f 3cbe 1ae8 77ba a18a b6bd 777c 953d
00000160: 4da1 8f3e 2a76 853c 908f 5d3d 57e6 69bc
00000170: c149 40bd 34b8 acbe 39de c2bd d04c f0be
00000180: 8a08 823e 0925 bc3d bbd0 5cbd db8d 51bd
00000190: 8771 093e fd7f 50be 2f4d 803d 88ce 1fbe
000001a0: 2bed a5bc e352 8abe 449b e63c 5b88 6b3d
000001b0: d4af e1bb 8d9f cbbe b6fb 23bd 1407 753e
000001c0: 567c da3d 3084 06bd 24d8 923e 2904 6fbe
000001d0: cdcb 7b3d cede 7a3e 4a7d f43c d894 233d
000001e0: e153 20be 0231 1d3d 43d6 503e a8f8 1a3e
000001f0: 77b0 393e d6c4 42be 44c9 ee3d 5aab 0cbe
00000200: 5232 893c 10f8 c7bd 1526 c0bd 3b59 983d
00000210: 262b 03bd 7b98 24bc 166a 3dbe 3a7b 7c3d
00000220: 0cb8 ff3d a484 9e3c db0e 3fbe 18d5 0ebd
00000230: ac94 f7bd 3bf3 0a3d 43dd 393e dfda 263d
00000240: f456 97bd 6878 5c3b 6e3c 283e 9295 c6bd
00000250: 6aa9 cfbd 5210 0ebd 8eb3 033d 6138 233e
00000260: 0460 55be 30cb 42be 02e8 093b c749 9cbd
00000270: bd72 913e fc22 963e cb95 b0bb 17be 103d
00000280: b23a 103d c7e3 873d 132c 553e 188e 983e
00000290: e0e6 573c 48fe 993d 741e 2fbe 8bc4 a53b
000002a0: 8019 5d3d b309 dbbb f033 e2bd 574c 813e
000002b0: eeed e9bd 8e57 a7bc a610 4fbd 60ce ae3c
000002c0: 56bb abbd 02c7 52bd 5e53 fe3c 3df4 243e
000002d0: 1ebc 89be f8cd 84be 212d 9b3e 3fa4 55be
000002e0: d95e e5bb 6381 9dbd 3edc 5c3e e6c9 71bd
000002f0: 915b 043e 4fbb 5c3d 27ca 9cbe d057 8b3e
00000300: fd43 fd3d 47a3 383d 9400 543b 567b 03be
00000310: 6759 e83d 95bd 92bd 8d19 593d 6f46 5b3d
00000320: 5b8e 9ebc 6617 203c 219b cfbc e42c e1bd
00000330: bef9 bcbc 003b d93d 9c97 7abe a20e a33d
00000340: 007d 2e3d efc6 b63c 9fba 20bb 8375 55be
00000350: 9523 b43c bc8f 54bd f73f 783e 6a6f 5fbd
00000360: 0d48 263e a9b2 8d3c 1899 e93d ad91 83be
00000370: b21f b23d 3cfa a7be 4514 613e 121b bc3d
00000380: 8569 bdbb 0633 1abe 9d16 dfbd 28f6 b0be
00000390: 16e9 073d af0e 23be 5e13 2abe a70c 20be
000003a0: a9d2 e6bd 1af1 6c3d aff2 cc3d f0d4 dabc
000003b0: f36e 103d 5a9c 163e a309 61be 82b9 50bd
000003c0: c13f d2be 3c0c 1ebe 1e4e 2ebd 18a0 1cbd
000003d0: 42ec bdbc 697d 14bc e829 04be 0467 713c
000003e0: d683 34be a9a4 2c3e 73c5 bdbc 1529 1cbe
000003f0: 1f3d 86bd 8de1 2cbe 520c d83d c092 63be

bias f4 [32]
0.03365899 -0.022409605 -0.16820604 -0.081642985 -0.31288415 -0.07237269 -0.093245074 0.23592423
-0.22939105 0.122088864 -0.08598834 0.029579887 -0.16259822 -0.009942602 -0.18307598 -0.12095417
-0.28899315 -0.16360366 -0.102203794 -0.09932971 0.12066011 -0.104214236 -0.15403667 -0.08149657
-0.102952056 -0.039384298 -0.07138256 -0.14038692 -0.1927767 0.023327583 -0.12189456 -0.061768312
00000000: 02de 093d 5994 b7bc 343e 2cbe 7034 a7bd
00000010: 5a32 a0be 2238 94bd 46f7 bebd 1f96 713e
00000020: 7de5 6abe ba09 fa3d a81a b0bd 8551 f23c
00000030: 2680 26be 4ce6 22bc 4578 3bbe d2b6 f7bd
00000040: e9f6 93be b887 27be 3950 d1bd 606d cbbd
00000050: a61c f73d 466e d5bd cabb 1dbe ace7 a6bd
00000060: 87d8 d2bd 6e51 21bd 0531 92bd 97c1 0fbe
00000070: 4167 45be 7d19 bf3c dba3 f9bd c500 7dbd

weight f4 [12, 32]
0.08498413 0.061182104 -0.06217356 -0.09567023 -0.18469195 0.03968542 -0.086248346 -0.07944209
0.12310502 -0.045555364 -0.025983056 0.0590223 -0.03321812 0.17252773 -0.022957962 0.16248412
0.019285528 -0.08962895 -0.12891829 -0.025224177 0.083294794 -0.12123004 -0.0840084 -0.094004154
0.0984544 0.11633941 0.13019589 0.25862113 0.091841206 -0.07682763 -0.27624223 0.03830221
0.16347465 0.107071295 -0.30409682 0.12877318 0.15780045 -0.0481578 -0.13064127 -0.13599339
-0.106808804 0.18681456 -0.17388336 -0.019396095 0.1860646 -0.01699266 -0.31236473 0.06458633
0.06377231 -0.15168108 0.053226307 0.21891403 -0.10654057 -0.119046465 0.11856455 0.08983742
0.16510777 0.01588437 0.10035882 -0.09019896 0.1413206 0.0023114504 0.15267682 -0.025999514
0.06486075 -0.029924093 0.24490124 0.07655542 -0.019919042 -0.121337175 0.0979644 -0.17888147
-0.0046087415 0.0025908886 -0.011326439 -0.1724364 0.11775873 -0.11765485 0.27299976 -0.023981374
-0.026680788 -0.17120725 0.17886405 -0.12087701 0.115572415 0.12599654 -0.00976729 0.08243402
0.02465393 -0.34467024 0.21419908 0.24824551 0.019941673 -0.08081306 -0.10196228 -0.1078428
-0.0843626 -0.23530902 0.06031463 -0.114524014 0.019303057 -0.053987287 -0.113895826 -0.16399951
0.2036653 -0.012334232 0.034935772 0.07747053 -0.10228566 0.02308731 -0.04300055 -0.15011589
-0.1681307 -0.040948763 0.025499228 0.055782657 0.054876782 -0.0067933304 0.28526652 -0.0016793871
-0.07845882 0.057267666 -0.101287864 -0.057607986 0.098901324 -0.02101137 0.066546015 -0.121354714
-0.066020034 -0.062172648 0.012780868 -0.010206331 -0.016584063 -0.059180748 0.19604804 0.17348287
0.025767045 0.13490944 0.2508932 0.11250066 -0.1475376 -0.03143155 0.09831321 0.0044576405
-0.15936138 -0.23917954 0.19524854 -0.0052968157 0.17283861 -0.03614243 0.015168626 -0.38750833
-0.04839425 0.24705327 0.029097663 -0.01228637 -0.23311771 0.2056507 0.030151874 0.13671795
0.35956627 -0.075311415 -0.07645075 -0.03209531 0.10155341 0.12405287 0.10254061 -0.02965988
-0.020066136 -0.22568926 0.0137301115 -0.1614156 0.027052673 -0.07982858 -0.11893604 0.11023078
-0.101662554 0.20093694 -0.10723415 -0.10858924 0.06450815 0.25655168 -0.06575456 0.2129007
-0.050914116 0.010730124 -0.11662298 -0.0021117884 -0.01323559 0.13897832 -0.1377557 0.1965157
-0.03584796 -0.13757484 -0.016587066 -0.06951852 0.16466829 -0.23456328 0.040370308 0.11346783
0.021921862 -0.009344114 -0.02382727 0.032279026 -0.026650729 0.061581712 0.12558751 -0.07232226
-0.1099583 0.04633259 -0.115373515 0.11294536 0.08236286 0.022383424 -0.0034647677 -0.062464796
0.24220127 -0.11553225 0.007457983 -0.03086402 -0.15195093 0.018299086 0.12041635 -0.08899895
0.025344709 0.06584762 0.104602754 -0.27088636 0.040680602 0.01749055 -0.120158546 -0.2055982
-0.09240578 0.16404977 -0.007790436 0.047443986 -0.07404218 -0.012820726 0.13497537 0.11393308
0.030456802 0.048329126 -0.027514473 -0.22150779 -0.1080446 0.056130636 0.119577274 -0.055376183
-0.062068045 0.02747863 0.02220886 -0.0028610465 -0.18646498 0.14515978 0.048219632 0.15216185
00000000: 290c ae3d 169a 7a3d b4a9 7ebd c1ee c3bd
00000010: e31f 3dbe 2e8d 223d f9a2 b0bd 89b2 a2bd
00000020: 7c1e fc3d 4398 3abd 6bda d4bc 5ec1 713d
00000030: b90f 08bd 1cab 303e 5612 bcbc 3d62 263e
00000040: affc 9d3c 628f b7bd 2803 04be efa2 cebc
00000050: 7696 aa3d 7547 f8bd 990c acbd 4085 c0bd
00000060: 76a2 c93d 5b43 ee3d 1252 053e fd69 843e
00000070: 3e17 bc3d ce57 9dbd 9f6f 8dbe c7e2 1c3d
00000080: e665 273e 3248 db3d 94b2 9bbe 1edd 033e
00000090: 7196 213e 1d41 45bd d3c6 05be da41 0bbe
000000a0: 93be dabd 514c 3f3e 7b0e 32be 8fe4 9ebc
000000b0: b887 3e3e 3134 8bbc 45ee 9fbe d645 843d
000000c0: 0f9b 823d 4952 1bbe d403 5a3d 002b 603e
000000d0: f131 dabd a2ce f3bd f9d1 f23d aefc b73d
000000e0: 0312 293e f01f 823c ed88 cd3d 3bba b8bd
000000f0: 59b6 103e b47b 173b 5057 1c3e effc d4bc
00000100: b7d5 843d 5f23 f5bc 64c7 7a3e 17c9 9c3d
00000110: 422d a3bc a07f f8bd 8fa1 c83d b42c 37be
00000120: ed04 97bb e6cb 293b 8792 39bc 2b93 30be
00000130: 7d2b f13d 07f5 f0bd a0c6 8b3e 9674 c4bc
00000140: ab91 dabc f450 2fbe 2328 373e 5e8e f7bd
00000150: 3bb1 ec3d 3d05 013e fc06 20bc 2bd3 a83d
00000160: 0af7 c93c 9e78 b0be 0157 5b3e 1234 7e3e
00000170: b85c a33c 5181 a5bd 9ad1 d0bd b0dc dcbd
00000180: 4dc6 acbd d9f4 70be 790c 773d 918b eabd
00000190: 7221 9e3c c621 5dbd 3742 e9bd 7def 27be
000001a0: a38d 503e 8515 4abc d018 0f3d dfa8 9e3d
000001b0: 257b d1bd 9921 bd3c 5821 30bd fbb7 19be
000001c0: 742a 2cbe e4b9 27bd c2e3 d03c 5b7c 643d
000001d0: 7ac6 603d 969a debb 740e 923e e11e dcba
000001e0: 05af a0bd 8091 6a3d 0370 cfbd 5af6 6bbd
000001f0: c78c ca3d 0920 acbc 4749 883d d288 f8bd
00000200: 8335 87bd bfa8 7ebd d966 513c 7438 27bc
00000210: 4ddb 87bc 8367 72bd d1c0 483e 7ea5 313e
00000220: 6915 d33c b325 0a3e 1375 803e bf66 e63d
00000230: 1914 17be 5ebe 00bd 7058 c93d 6611 923b
00000240: a12f 23be 7beb 74be 3cef 473e e990 adbb
00000250: 9bfc 303e 160a 14bd d485 783c 7e67 c6be
00000260: 0d39 46bd 88fb 7c3e 395e ee3c c54c 49bc
00000270: 69b6 6ebe 1996 523e 1001 f73c caff 0b3e
00000280: 1219 b83e df3c 9abd 3692 9cbd 5f76 03bd
00000290: 3cfb cf3d 6e0f fe3d d000 d23d 47f9 f2bc
000002a0: bd61 a4bc 161b 67be 43f4 603c 224a 25be
000002b0: 919d dd3c 2b7d a3bd bd94 f3bd adc0 e13d
000002c0: 7534 d0bd 6ac2 4d3e 949d dbbd 0964 debd
000002d0: d91c 843d be5a 833e 54aa 86bd a402 5a3e
000002e0: 528b 50bd 67cd 2f3c 07d8 eebd ee65 0abb
000002f0: 17da 58bc 5550 0e3e d50f 0dbe 693b 493e
00000300: 4fd5 12bd 6be0 0cbe 99e1 87bc ba5f 8ebd
00000310: ce9e 283e 5b31 70be 565b 253d d261 e83d
00000320: 7a95 b33c 0e18 19bc 6831 c3bc 0337 043d
00000330: a152 dabc 1b3d 7c3d 039a 003e b11d 94bd
00000340: d131 e1bd 3ec7 3d3d f348 ecbd e64f e73d
00000350: dcad a83d 715d b73c 2811 63bb 16db 7fbd
00000360: 9c03 783e 2c9c ecbd 1962 f43b 8bd6 fcbc
00000370: 0699 1bbe f7e7 953c d99c f63d 1545 b6bd
00000380: b59f cf3c 1edb 863d f839 d63d 9eb1 8abe
00000390: b4a0 263d 5848 8f3c af15 f6bd 5688 52be
000003a0: 3e3f bdbd aafc 273e ea46 ffbb a054 423d
000003b0: 6da3 97bd 060e 52bc fc36 0a3e bf55 e93d
000003c0: 8b80 f93c c3f4 453d 0866 e1bc f0d2 62be
000003d0: 7d46 ddbd 3de9 653d eee4 f43d 23d2 62bd
000003e0: 103b 7ebd dd1a e13c 5bef b53c 6580 3bbb
000003f0: adf0 3ebe c4a4 143e f381 453d 51d0 1b3e

bias f4 [12]
0.17102645 0.17291948 -0.07066746 0.15572403 -0.035319544 -0.34603822 0.05102532 -0.0024896478
-0.18586782 0.03785413 0.2846309 -0.13029227
00000000: 8f21 2f3e ce11 313e 1aba 90bd 1f76 1f3e
00000010: 3aab 10bd ec2b b1be edff 503d 5c29 23bb
00000020: 2254 3ebe ef0c 1b3d 24bb 913e 566b 05be
