src/rl_sar/models/a1_isaacgym/policy.pt (torch, 992110 bytes, 14 tensors)

weight f4 [512, 64]
0	0xbe035a0b	-0.12827317
1	0xbcf502f3	-0.029908633
2	0x3edc83d5	0.4306933
3	0xbcd59aaa	-0.026074726
4	0x3d92b024	0.071625024
5	0xbed51e93	-0.4162489
6	0x3e632960	0.22183752
7	0xbbacfd0f	-0.0052791904
8	0x3d80f981	0.06297589
9	0xbeb498e3	-0.35272893
10	0xbeadfbfa	-0.33981305
11	0x3e1c459a	0.15260926
12	0xbea90973	-0.33015022
13	0x3e30e297	0.17273937
14	0xbdd80943	-0.105486415
15	0xbca9a4e8	-0.020708516
16	0xbe430992	-0.1904662
17	0xbe1b52ad	-0.15168257
18	0xbe4f01ef	-0.20215581
19	0x3e8cd925	0.27509418
20	0xbe52a56a	-0.20570913
21	0xbe3d5908	-0.18490994
22	0xbe84c6fd	-0.25933066
23	0x3dd28670	0.10279548
24	0x3b26b870	0.0025439523
25	0x3e68d8e2	0.22738984
26	0xbda36514	-0.079782635
27	0xbe0953c6	-0.13410863
28	0xbc95149e	-0.018198308
29	0xbd76c875	-0.060249764
30	0xbe5c0e14	-0.21489745
31	0x3eb7de0f	0.35911605
32	0xbe625313	-0.22102003
33	0x3aa48266	0.0012551069
34	0x3c9f5a15	0.019452134
35	0x3984f17e	0.00025356928
36	0x3d9b0986	0.07570176
37	0xbdc531d8	-0.096286476
38	0x3d3bba92	0.045832224
39	0xbae91369	-0.0017782274
40	0x3c4f04b6	0.0126354005
41	0xbc90939d	-0.017648512
42	0xbcdbf887	-0.026851906
43	0x3dfba20f	0.122867696
44	0xbbe506e3	-0.0069893464
45	0x3deea39d	0.116523005
46	0x3ce4a297	0.02790956
47	0x3e97c3b8	0.2964151
48	0xbd4f270b	-0.050574344
49	0xbe2391cb	-0.15973584
50	0x3d255e45	0.040373106
51	0xbce06d90	-0.027395993
52	0x3d4a17c3	0.049339067
53	0x3d241542	0.040059336
54	0xbd7022f2	-0.058627076
55	0x3d4ba090	0.04971367
56	0x3dbdf401	0.09275056
57	0x3db8d072	0.09024133
58	0x3cf7b4d4	0.030237593
59	0x3e06a362	0.13148263
60	0x3b868767	0.0041054967
61	0x3d9d5940	0.07683039
62	0xbdcc0615	-0.099620976
63	0x3d5c5bae	0.05379837
64	0x3da837b0	0.082137465
65	0xbca340be	-0.019928332
66	0x3da227ea	0.07917769
67	0x3e09fc39	0.13475122
68	0xbeb436d6	-0.35198087
69	0xbe189fed	-0.14904757
70	0x3e208700	0.15676498
71	0xbee537b8	-0.44769073
72	0x3e31fbd5	0.17381223
73	0xbe471059	-0.1943983
74	0x3defc867	0.117081456
75	0x3e057abd	0.13035102
76	0x3e3121d5	0.17298062
77	0xbe892ce8	-0.26792073
78	0xbec0ecb1	-0.3768058
79	0xbdaf09d1	-0.08546794
80	0xbe522988	-0.20523655
81	0xbda1cd6c	-0.07900509
82	0xbcbb41e6	-0.022858571
83	0x3e4a3855	0.19748051
84	0x3dcdac4f	0.10042631
85	0x3d5de59e	0.05417406
86	0x3e28288c	0.16421717
87	0xbe2fb365	-0.17158277
88	0xbe3028c4	-0.17203051
89	0x3f42a1cc	0.7602813
90	0x3e17d849	0.148286
91	0xbd40f6b9	-0.047110293
92	0x3dee1ab7	0.11626189
93	0x3e9fdf05	0.31224838
94	0xbccfab80	-0.025350332
95	0x3dcad98d	0.09904776
96	0xbdc33aec	-0.09532723
97	0x3e02ad60	0.1276145
98	0x3d742ac2	0.05961109
99	0xbe4903ed	-0.19630404
100	0x3e0e5bdd	0.1390223
101	0xbd399ae0	-0.045313716
102	0x3dc941f1	0.098270305
103	0x3b8df93d	0.00433269
104	0xbce82079	-0.028335797
105	0x3cbf0b81	0.023320915
106	0xbde5d03a	-0.11221357
107	0x3c85627f	0.016282318
108	0xbdc680a3	-0.09692504
109	0x3e06f8d0	0.13180852
110	0x3cda5e7d	0.026656384
111	0x3e473e19	0.19457282
112	0xbe19b029	-0.15008606
113	0xbde81339	-0.113317914
114	0xbe0ffaa1	-0.14060451
115	0xbe2b4da4	-0.16728836
116	0x3e30a988	0.17252171
117	0xbe016f77	-0.12640177
118	0xbe0ad400	-0.13557434
119	0xbdaf3adf	-0.08556151
120	0x3c5fab04	0.013651613
121	0x3d0f072a	0.03491894
122	0x3c41b78c	0.011823546
123	0x3dd6fefb	0.104978524
124	0xbb129e52	-0.0022372198
125	0x3c3176a2	0.010831507
126	0x3c2dae7c	0.010600682
127	0x3cd01d37	0.025404556
128	0xbc8573dc	-0.016290598
129	0x3d8c7309	0.06857879
130	0xbdfecce6	-0.12441425
131	0x3ecb2764	0.3967849
132	0xbed8ea19	-0.42366102
133	0xbe553415	-0.20820649
134	0xbeb7c992	-0.35895973
135	0x3e1e5fa1	0.15466167
136	0x3d4203f1	0.04736704
137	0x3e061582	0.13094142
138	0x3e1c1d30	0.15245509
139	0x3d8a4da9	0.06753094
140	0x3e58b3ee	0.21162388
141	0xbe21c5fd	-0.15798183
142	0xbddcb919	-0.10777492
143	0x3e8b2c2a	0.27182132
144	0x3de311c9	0.110873766
145	0xbe99f7e2	-0.30071932
146	0x3e6d91eb	0.23200195
147	0xbe556675	-0.20839866
148	0xbc1a3d4f	-0.009414031
149	0x3e99a6ab	0.3000997
150	0x3d151f55	0.036406834
151	0xbc151a69	-0.009100535
152	0x3dcae2e5	0.09906558
153	0xbe84c3cb	-0.25930628
154	0xbd182b54	-0.037150696
155	0xbd0fc615	-0.035101015
156	0xbea63797	-0.32464287
157	0xbe82963b	-0.25505242
158	0x3e8a0d43	0.26963243
159	0x3db4685f	0.0880897
160	0xbd553d73	-0.052060556
161	0x3df034a0	0.117287874
162	0x3d87b2f4	0.066259295
163	0xbc262d76	-0.010142675
164	0xbd9fc1ac	-0.07800612
165	0x3b3f361a	0.0029176534
166	0xbbe2c9bd	-0.0069210217
167	0xbca14531	-0.019686313
168	0xb919465e	-0.00014617431
169	0x3cb10fea	0.021614034
170	0xbd587cf3	-0.052853536
171	0x3c6393b7	0.013890198
172	0xbdb3747b	-0.08762451
173	0xbe18e598	-0.14931333
174	0x3e00b9eb	0.12570922
175	0x3ea6a7dc	0.32549942
176	0xbe04fb4e	-0.1298649
177	0xbda88627	-0.082287125
178	0xbd6db4a6	-0.058033608
179	0xbda5393d	-0.08067558
180	0xbb8b9067	-0.0042591575
181	0xbde03e52	-0.10949387
182	0xbd849e67	-0.06475525
183	0xbd29e534	-0.04147835
184	0xbe1fc6ee	-0.1560323
185	0x3e2ca0ae	0.1685817
186	0xbb3b1e3e	-0.0028551961
187	0x3b1fd3d5	0.0024387736
188	0xbc5a5987	-0.013327009
189	0xbe18b28b	-0.14911859
190	0x3cc1322e	0.023583498
191	0xbe0ee794	-0.13955528
192	0x3dedc58b	0.11609944
193	0xbb247856	-0.002509614
194	0x3f30c1db	0.690458
195	0x3d95e02f	0.0731815
196	0x3e13e58c	0.14443034
197	0xbf3c3b5e	-0.7352809
198	0x3e8f9f0d	0.28051034
199	0xbd01bae0	-0.03167236
200	0x3e2c8b97	0.16850124
201	0x3d405c52	0.046963044
202	0xbec8d0f4	-0.3922192
203	0x3e71c334	0.2360962
204	0xbe7ff96b	-0.24997489
205	0x3e40df0c	0.18835086
206	0xbdcd8b84	-0.10036376
207	0x3dd24ea8	0.10268909
208	0x3de6e88c	0.112748235
209	0x3eb151cf	0.34632728
210	0x3e04ff6f	0.12988065
211	0x3e9ce9a3	0.30647
212	0xbe25891c	-0.16165584
213	0x3d4fd34c	0.050738618
214	0xbe7e3aa7	-0.24827062
215	0xbcd70807	-0.026248945
216	0xbdb47160	-0.08810687
217	0x3e1ea675	0.15493186
218	0x3db49441	0.0881734
219	0xbb8ebfbc	-0.0043563526
220	0xbc82ae03	-0.015952116
221	0x3de89f78	0.11358541
222	0x3e024034	0.12719804
223	0x3cab4129	0.020905094
224	0xbd9da3a2	-0.07697226
225	0x3d0b4f84	0.03401138
226	0x3dac6d41	0.08419276
227	0xbd4fd6a9	-0.050741825
228	0x3dff893f	0.124773495
229	0xbd89bc6c	-0.06725392
230	0xbd36ab4b	-0.04459695
231	0xbd0d4229	-0.034486923
232	0xbbdf7a14	-0.006819973
233	0xbdaf3052	-0.08554138
234	0xbd1487fb	-0.036262494
235	0xbd685bd2	-0.05672819
236	0x3d1a6af2	0.037699647
237	0xbe11c0da	-0.14233723
238	0x3d200068	0.039062887
239	0x3e19cc48	0.15019333
240	0xbc91754f	-0.017756132
241	0x3d197b59	0.03747115
242	0x3d85b4b0	0.06528604
243	0x3dc60484	0.0966883
244	0xbd8c8d85	-0.0686293
245	0x3cd6b63b	0.026209941
246	0xbdd1371c	-0.102155894
247	0x3b01a81f	0.0019784046
248	0xbb04260a	-0.0020164275
249	0x3d7d7795	0.06188162
250	0xbcd848f4	-0.026401974
251	0x3d58c788	0.052924663
252	0xbd8c957f	-0.068644516
253	0x3c916f6e	0.01775333
254	0x3d7853dc	0.06062685
255	0x3b16edc1	0.0023029896

bias f4 [512]
0	0x3b462fbc	0.0030240854
1	0xbdad4c20	-0.08461785
2	0xbe6db3d8	-0.23213136
3	0x3e02a777	0.12759195
4	0x3d265e33	0.04061718
5	0xbe436ed5	-0.19085248
6	0x3d8463f3	0.06464376
7	0xbd20e70f	-0.039282855
8	0xbd968429	-0.07349426
9	0xbde89a20	-0.11357522
10	0x3d5448c5	0.05182721
11	0x3dd7fe41	0.10546542
12	0xbe328036	-0.17431721
13	0xbe4f305a	-0.20233288
14	0xbe0026ac	-0.12514752
15	0x3de3dbfa	0.111259416
16	0xbdb3866d	-0.08765874
17	0xbe26365a	-0.16231671
18	0xbdcd03f6	-0.10010521
19	0xbd2aef41	-0.041732077
20	0xbe14d679	-0.1453494
21	0xbccd2e88	-0.025046602
22	0x3db66e2f	0.089077346
23	0x3d8c9f8c	0.06866369
24	0xbcf7bb5d	-0.030240709
25	0xbd8de2f8	-0.069280565
26	0xbc2b3f46	-0.010452097
27	0xbd8a4e25	-0.06753186
28	0xbd00a34d	-0.031405736
29	0xbd027402	-0.031848915
30	0x3d257e34	0.04040356
31	0x3d63b60f	0.055593546
32	0x3b478ae8	0.0030447785
33	0xbe3d1c09	-0.18467726
34	0x3e4df528	0.20113051
35	0x3df34869	0.118790455
36	0x3e134b92	0.14384297
37	0x3d337181	0.043809418
38	0x3d0e1ca3	0.03469528
39	0xbb01d07e	-0.001980811
40	0xbdc2a52c	-0.0950416
41	0x3e2e92f7	0.1704825
42	0xbcfa5a4c	-0.030560635
43	0x3d855d9a	0.06511994
44	0x3c1b0f96	0.009464165
45	0x3d5332c3	0.051562082
46	0xbdf91e6f	-0.12164008
47	0xbe5668fd	-0.20938487
48	0xbde0da43	-0.1097913
49	0xbdae9d89	-0.08526141
50	0xbbbc88ad	-0.0057535977
51	0xbdb1162e	-0.086468086
52	0x3cde2c6d	0.027120793
53	0x3e27ad6a	0.16374746
54	0x3dddff90	0.1083976
55	0xbe18d75b	-0.14925902
56	0xbe86d154	-0.2633158
57	0x3d8bbb44	0.068228275
58	0x3c1edce2	0.009696217
59	0xbde0442d	-0.109505035
60	0x3db9cfc3	0.090728305
61	0xbda2c0fa	-0.079469636
62	0x3d7bcef9	0.06147668
63	0xbe1eb080	-0.15497017
64	0x3ba50b03	0.005036713
65	0x3dd0b7d1	0.1019131
66	0x3c9dc9c3	0.019261247
67	0x3d1115af	0.03542107
68	0xbdb8e689	-0.09028346
69	0x3e74ad88	0.23894322
70	0x3e373267	0.1789032
71	0x3d1a457c	0.03766392
72	0xbd3ca3e7	-0.046054747
73	0xbe38ea5f	-0.18058155
74	0x3d6467d1	0.05576307
75	0xbd477c62	-0.048702605
76	0x3dfb65b0	0.12275255
77	0xbd17a4f7	-0.037022557
78	0xbe019e03	-0.12657933
79	0xbadd70a4	-0.0016894531
80	0xbc16b7dd	-0.00919911
81	0xbe7f4b89	-0.24931158
82	0x3d3766e2	0.04477585
83	0x3dd16cf0	0.10225856
84	0xbd89f8b0	-0.067368865
85	0x3d9dd269	0.07706148
86	0x3e1ecdf6	0.15508255
87	0x3d15bb4b	0.03655557
88	0xbe301124	-0.17194039
89	0xbdb234ba	-0.08701463
90	0xbd6d094a	-0.057870187
91	0xbb58865c	-0.0033039069
92	0x3e3f2517	0.18666492
93	0xbe6e7c89	-0.23289694
94	0xbe6b390a	-0.22970977
95	0x3dc8feb5	0.098142065
96	0xbb86a0a8	-0.004108507
97	0x3e0b9cac	0.13633984
98	0x3c354507	0.011063821
99	0x3e5605d5	0.20900662
100	0xbd806ad3	-0.06270375
101	0xbd86d653	-0.06583848
102	0x3c78523a	0.015156323
103	0xbe145d5e	-0.14488742
104	0x3e670ce4	0.22563511
105	0xbd638489	-0.055546317
106	0xbde9cb57	-0.11415737
107	0x3d9e6a33	0.077351
108	0x3e7a021a	0.24414864
109	0x3d6b0156	0.05737432
110	0x3dc1935f	0.09451937
111	0xbc77020a	-0.01507617
112	0xbdfe7006	-0.124237105
113	0x3e2f70e1	0.17132904
114	0xbe96eeee	-0.29479164
115	0xbdf1a454	-0.11798921
116	0xbe2d0471	-0.16896226
117	0x3cfb7c40	0.030698895
118	0xbdb4abd8	-0.08821839
119	0x3d810ff2	0.063018695
120	0xbda9e459	-0.08295507
121	0x3d95cc11	0.07314313
122	0x3e2b1be6	0.16709861
123	0x3d42c467	0.047550585
124	0xbdc867cc	-0.09785423
125	0x3d8bf9a9	0.06834728
126	0xbdb85e3c	-0.09002349
127	0x3e2e2f28	0.17010176
128	0xbdf23271	-0.11826027
129	0x3d369d50	0.04458362
130	0x3df27f0b	0.11840638
131	0xbcaaf5cf	-0.020869164
132	0x3c230ba9	0.0099515105
133	0x3bdec12f	0.0067979316
134	0x3e558005	0.20849617
135	0x3e2c8c34	0.16850358
136	0xbdc9fcf3	-0.09862699
137	0xbd94cd43	-0.07265713
138	0xbc953a5f	-0.01821631
139	0x3e224cf8	0.15849674
140	0x3e223ca8	0.15843451
141	0x3dc1a4c2	0.09455253
142	0xbd93b1ac	-0.072116226
143	0x3dd7b7a8	0.105330765
144	0xbe480fdd	-0.19537301
145	0x373384b1	1.0700126e-05
146	0xbd918ddf	-0.07107138
147	0xbe652d40	-0.22380543
148	0x3d93767e	0.07200335
149	0x3d8b09b1	0.06788958
150	0x3d002d68	0.031293303
151	0x3d703f9d	0.058654416
152	0x3dc38a11	0.095478185
153	0x3e6048d1	0.21902777
154	0x3de0fd05	0.1098576
155	0x3df86eac	0.12130484
156	0xbdd05a8a	-0.10173519
157	0xbe2dda0a	-0.16977707
158	0xbd5cda5b	-0.053919178
159	0x3e68c668	0.22731936
160	0x3d5ae199	0.053437803
161	0x3df29f62	0.11846806
162	0xbe388369	-0.18018879
163	0xbd6d6c21	-0.057964448
164	0xbdaac32b	-0.083380066
165	0xbe2f2b65	-0.17106397
166	0x3df944f0	0.12171352
167	0x3d953ef5	0.07287399
168	0x3d9672c0	0.073461056
169	0x3b3f9b59	0.0029236882
170	0xbd99bcb7	-0.075066976
171	0x3dccb247	0.09994941
172	0x3d8c493e	0.06849907
173	0xbdc25544	-0.094889194
174	0xbd3f76f1	-0.04674429
175	0x3e0ee41e	0.13954207
176	0xbe346de5	-0.17620046
177	0xbde5a983	-0.112139724
178	0x3e0c2b3f	0.13688372
179	0x3d589cc0	0.052883863
180	0xbda7b997	-0.08189695
181	0xbdb45152	-0.08804573
182	0x3d5c40e8	0.053772837
183	0x3e0d55f5	0.13802321
184	0xbdde34e4	-0.10849932
185	0x3e26017c	0.16211504
186	0xbb38895e	-0.002815805
187	0xbea034bd	-0.31290236
188	0x3d786617	0.060644235
189	0x3c0286c7	0.007966704
190	0xbdb6106d	-0.08889852
191	0xbe849dfb	-0.2590178
192	0x3d0266bf	0.031836268
193	0x3e2c1971	0.1680658
194	0x3d393593	0.045217108
195	0x3e1ed615	0.15511353
196	0xbe02116e	-0.12701961
197	0x3dd1c7fb	0.10243221
198	0xbd97c35c	-0.07410309
199	0xbd460088	-0.04834035
200	0xbcb940d7	-0.022613926
201	0xbe728846	-0.23684797
202	0xbe19c144	-0.15015131
203	0xbe89d2a0	-0.26918507
204	0x3ceab482	0.028650526
205	0xbd9c893b	-0.07643362
206	0xbe677797	-0.22604214
207	0x3d06561b	0.03279696
208	0xbd9c3e49	-0.076290675
209	0x3e71740d	0.23579426
210	0xbe52e6d3	-0.20595865
211	0xbde5d07f	-0.11221408
212	0xbe48ed32	-0.19621733
213	0xbce3e42e	-0.027818765
214	0x3d68d14d	0.05684023
215	0xbc7b1ed1	-0.015327171
216	0xbd955a73	-0.072926424
217	0x3dfc3c1a	0.12316151
218	0xbe711a29	-0.23545136
219	0x3dc6b6e3	0.097028516
220	0x3e02963e	0.12752625
221	0x3e0fda78	0.14048183
222	0xbd43db96	-0.047816835
223	0xbdf86dea	-0.121303394
224	0xbd524c13	-0.05134208
225	0xbe4fc85c	-0.20291275
226	0x3e14ea14	0.14542419
227	0x3bfad451	0.0076547046
228	0xbe5f4025	-0.21801813
229	0x3d8b4a61	0.06801296
230	0x3e205570	0.15657592
231	0x3e55b6a5	0.20870455
232	0xbdd98d61	-0.10622669
233	0xbcde45f0	-0.027132958
234	0xbe168128	-0.14697707
235	0xbd6b4465	-0.057438273
236	0xbc463650	-0.01209791
237	0xbd0c58d1	-0.03426439
238	0x3d1ee83e	0.038795702
239	0xbbacd76b	-0.0052747033
240	0x3ca3bce0	0.019987524
241	0xbe822226	-0.25416678
242	0xba39bc6b	-0.00070852664
243	0xbdba517b	-0.090975724
244	0xbdbdbf72	-0.09265031
245	0xbc6aa6bf	-0.014321982
246	0xbd87b6d0	-0.066266656
247	0xbddc92a1	-0.10770155
248	0x3d3b6b8e	0.04575687
249	0xbe1ed6ee	-0.15511677
250	0x3e6184a6	0.22023258
251	0xbcc1a662	-0.023638908
252	0x3ce61417	0.028085751
253	0xbe4cec59	-0.20012034
254	0x3c78fdf6	0.015197268
255	0xbe445057	-0.19171272

weight f4 [256, 512]
0	0xbca530a1	-0.02016479
1	0xbd099f37	-0.033599105
2	0x3df9744c	0.12180385
3	0xbc7905f7	-0.015199176
4	0xbdc4073d	-0.09571693
5	0x3da699cd	0.08134804
6	0x3d118408	0.035526305
7	0xbd29f7dd	-0.041496146
8	0xbda9e04e	-0.08294736
9	0xbcaf2522	-0.021380011
10	0x3d79eb9b	0.061015707
11	0x3b9d1117	0.004793297
12	0x3c56109a	0.013065482
13	0x3b186f44	0.002325968
14	0x3e123d5e	0.14281222
15	0xba792105	-0.00095035165
16	0xbd56f4ba	-0.052479483
17	0x3e0c5cbb	0.13707249
18	0x3d087708	0.033316642
19	0xbd298453	-0.04138596
20	0x3e0462f0	0.12928367
21	0x3dbdac24	0.09261349
22	0xbe38f8d2	-0.18063667
23	0xbd58ec98	-0.05296001
24	0xbb4df1d9	-0.003142467
25	0xbe107075	-0.14105399
26	0xbdf459b0	-0.11931169
27	0x3d80affc	0.06283566
28	0x3dc4c968	0.09608728
29	0x3cc055a5	0.023478338
30	0x3c77ae3d	0.015117225
31	0xbd2ecdb1	-0.04267663
32	0x3e1fb7b2	0.15597418
33	0x3e431c4a	0.1905376
34	0xbcbdf1b1	-0.023186537
35	0xbe2d2477	-0.16908441
36	0xbd3469aa	-0.04404608
37	0xbd4a5351	-0.049395863
38	0x3df11f38	0.11773533
39	0x3db0352e	0.08603893
40	0xbcc816e4	-0.024424978
41	0x3de02a63	0.109455846
42	0x3d1e7e60	0.03869474
43	0x3d401780	0.04689741
44	0x3d6ccceb	0.057812613
45	0x3d2a5714	0.04158695
46	0x3db3261a	0.08747502
47	0x3dba2a52	0.09090103
48	0x3dfce333	0.12348022
49	0xbc602a27	-0.013681925
50	0x3e0db8cd	0.13840027
51	0x3dc5e820	0.09663415
52	0xbd9346ee	-0.07191263
53	0xbe8fd59f	-0.28092667
54	0xbd7c9179	-0.06166217
55	0x3e02f51b	0.12788813
56	0x3e0e6bf7	0.13908373
57	0x3dabcebf	0.08389043
58	0xbca1afa6	-0.019737076
59	0x3e11a002	0.14221194
60	0x3e0ee037	0.13952719
61	0xbd86a083	-0.06573584
62	0xbdd967d9	-0.106155105
63	0xbda667ae	-0.08125244
64	0xbe12a520	-0.14320803
65	0x3e271bf3	0.16319256
66	0xbc6b6621	-0.014367611
67	0xbdb23d42	-0.0870309
68	0xbd8c1158	-0.068392456
69	0x3cb4cb30	0.022069544
70	0xbbf07f06	-0.007339361
71	0xbcf683ab	-0.030092081
72	0x3d25b032	0.040451236
73	0x3e5dc9f9	0.21659078
74	0xbcc9f839	-0.024654495
75	0x3e4228c5	0.18960865
76	0xbda86436	-0.08222239
77	0x3d2c7568	0.042104155
78	0xbdc421af	-0.09576737
79	0xbd0a5ab9	-0.033777926
80	0x3ba6aae8	0.0050862916
81	0x3b91e6c2	0.0044525573
82	0x3d0d633f	0.034518477
83	0xbe826bd9	-0.25472906
84	0x3d35c2e3	0.04437531
85	0x3c8cdc27	0.01719482
86	0xbc6efab0	-0.014586136
87	0x3d4ef9b5	0.050531108
88	0x3dc89404	0.09793857
89	0xbdc35477	-0.09537595
90	0x3dcdf2f5	0.10056106
91	0xbe252e62	-0.16130975
92	0xbe014ee2	-0.12627748
93	0x3d8dcc83	0.06923773
94	0x3e81273f	0.25225255
95	0xbdfd8669	-0.12379152
96	0x3cc968ec	0.024586163
97	0xbcec4438	-0.028841123
98	0xbda2cd7e	-0.07949351
99	0xbd686129	-0.056733284
100	0xbe2690b8	-0.16266143
101	0x3dc601a6	0.09668283
102	0x3db6c6c1	0.08924628
103	0xbd537cc1	-0.051632646
104	0x3d82e7fd	0.063919045
105	0xbde5a520	-0.11213136
106	0xbdcc222a	-0.09967454
107	0xbe06df09	-0.13171019
108	0xbda156d5	-0.0787789
109	0xbc872784	-0.016498335
110	0x3cd816e7	0.026378108
111	0xbd3f7ecc	-0.046751782
112	0xbc9af012	-0.018913303
113	0xbdd33bbc	-0.10314128
114	0x3dbf53fa	0.09342189
115	0x3c19aecb	0.009380053
116	0xbd0914c4	-0.03346707
117	0xbba4a653	-0.00502471
118	0x3d85e4c9	0.06537778
119	0xbcad8802	-0.021183018
120	0xbbab8565	-0.0052344077
121	0xbb228028	-0.0024795625
122	0xbbf08fa8	-0.007341344
123	0xbddaad84	-0.10677627
124	0xbd9a5ef7	-0.07537644
125	0x3d0a0c4b	0.03370313
126	0xbe4dca6d	-0.2009675
127	0x3e06b06d	0.13153239
128	0x3d21483e	0.039375536
129	0xbcad598e	-0.021160867
130	0xbd0096f4	-0.03139396
131	0x3d0dffb9	0.034667704
132	0x3c98c2b2	0.018647525
133	0xbc97be89	-0.018523471
134	0x3d4cc488	0.049992114
135	0x3d5d58dc	0.05403982
136	0xbc5555db	-0.013020958
137	0xbdb3a5e6	-0.08771877
138	0xbd4a15ea	-0.049337305
139	0x3b6a10b1	0.0035715515
140	0x3c74f5c5	0.014951174
141	0xbd96d4a3	-0.07364776
142	0x3dd0783c	0.10179183
143	0xbe15fe52	-0.14647797
144	0x3e82b264	0.25526726
145	0x3c2fb6f8	0.0107247755
146	0xbdccd270	-0.10001075
147	0x3e0f5902	0.13998798
148	0xbd4d5346	-0.050128244
149	0x3c5ada71	0.013357745
150	0xbec61275	-0.38685957
151	0xbd38522a	-0.045000233
152	0xbc61c20e	-0.013779176
153	0x3d4bd392	0.049762316
154	0x3d8970d1	0.06710971
155	0xbd886479	-0.06659789
156	0x3e0e4eba	0.1389722
157	0xbde5741f	-0.11203789
158	0x3c807c8c	0.015684389
159	0xbe0fcd74	-0.14043218
160	0xbcfd3411	-0.030908616
161	0x3d6ac335	0.05731507
162	0xbca39e30	-0.01997289
163	0xbda77e49	-0.08178384
164	0x3d2b3762	0.041800864
165	0xbc91143c	-0.017709844
166	0xbe00fc69	-0.12596287
167	0xbd9b1cb9	-0.07573838
168	0xbdc1e06c	-0.09466633
169	0xbd59f2ff	-0.053210255
170	0x3e6971c9	0.22797312
171	0xbdafb067	-0.08578568
172	0xbbf973a0	-0.0076126605
173	0x3e24baaa	0.16086832
174	0x3de69d5a	0.11260481
175	0x3dca5a3c	0.09880492
176	0xbcdf7e98	-0.027282044
177	0x3a884680	0.0010396987
178	0xbd5a4f86	-0.053298496
179	0xbc337378	-0.010952823
180	0x3d0c3f0a	0.034239806
181	0xbe084551	-0.13307692
182	0x3d85bb58	0.065298736
183	0xbca13657	-0.019679232
184	0xbe1e6f79	-0.15472211
185	0x3db64798	0.08900374
186	0x3d115242	0.035478838
187	0x3d6fb288	0.05851987
188	0xbe5ee4f6	-0.21767029
189	0xbd76a3ab	-0.06021468
190	0x3d815cb9	0.063165136
191	0x3d8903b7	0.06690162
192	0xbd62bfcd	-0.055358697
193	0xbe144044	-0.1447764
194	0xbe0a4c2a	-0.13505617
195	0xbce325d7	-0.027728004
196	0xbdb4851f	-0.08814453
197	0xbd209929	-0.039208565
198	0x3dd503a5	0.10401086
199	0x3bf9ea82	0.0076268325
200	0x3d5bfbe4	0.05370702
201	0x3cced6e8	0.02524896
202	0x3e0f332d	0.13984366
203	0x3e80cd98	0.25156856
204	0x3e32a8c5	0.17447193
205	0xbcf017c0	-0.0293082
206	0xbe481ccf	-0.1954224
207	0x3dcc7e19	0.09984989
208	0x3dd7e516	0.105417415
209	0xbe5cbf4b	-0.21557347
210	0xbc82129b	-0.015878012
211	0xbce9ffd0	-0.028564364
212	0xbdf3d756	-0.119063064
213	0x3e23b4f4	0.15986997
214	0xbd0482c2	-0.032351263
215	0xbc4f1be0	-0.012640923
216	0x3e2897b3	0.16464119
217	0xbd230c47	-0.03980663
218	0x3c870a5b	0.01648443
219	0xbe40ca27	-0.18827115
220	0xbdade05b	-0.08490058
221	0xbd4b8bdf	-0.04969394
222	0xbe85aead	-0.2610983
223	0xbcb630f9	-0.022240149
224	0xbd81180f	-0.06303417
225	0x3e1a948d	0.1509573
226	0xbcbffc7a	-0.02343582
227	0xbca6ba73	-0.020352578
228	0x3d7af893	0.061272215
229	0xbd4ca51a	-0.04996214
230	0xbd022b2e	-0.03177946
231	0xbd3c2a91	-0.045939032
232	0xbde724e7	-0.112863354
233	0xbda77c3d	-0.081779934
234	0x3d5811b4	0.052751258
235	0x3d77322c	0.060350582
236	0x3d1f64cb	0.038914483
237	0xbe9488c2	-0.29010588
238	0x3ca441bf	0.020050881
239	0x3d43c332	0.047793575
240	0x3c569e82	0.013099315
241	0x3be6d856	0.007044832
242	0xbd13b3d4	-0.03606017
243	0xbd578fa3	-0.052627217
244	0xbde1e942	-0.110308185
245	0xbd91f7c4	-0.07127336
246	0x3e070f45	0.13189419
247	0x3dcb75e8	0.09934598
248	0x3cde1dad	0.02711376
249	0x3e286211	0.1644366
250	0xbccf7fb6	-0.025329452
251	0x3d73e9dc	0.059549198
252	0x3d0c23e6	0.034213923
253	0x3c9283c5	0.017885098
254	0xbd7ddc8a	-0.0619779
255	0xbdfb46b4	-0.12269345

bias f4 [256]
0	0xbd442bae	-0.04789322
1	0xbe01af2d	-0.1266448
2	0xbe1b2c64	-0.15153652
3	0xbdab3c37	-0.083610944
4	0xbe2fbcf1	-0.17161919
5	0xbda9b7bd	-0.082869984
6	0xbbfbf0c1	-0.007688612
7	0x3ce8de06	0.028426182
8	0xbd593c68	-0.053036124
9	0xbe197470	-0.14985824
10	0xbda3a08a	-0.07989605
11	0xbdd895bc	-0.105754346
12	0xbdf084c9	-0.11744077
13	0xbdc2c5f2	-0.09510411
14	0xbcbd8e3c	-0.023139112
15	0x3cc5b266	0.024132919
16	0xbe9398e3	-0.2882758
17	0xbccc04ea	-0.024904687
18	0xbdc4b7bc	-0.09605357
19	0xbdb850f9	-0.08999819
20	0xbd3c882e	-0.04602831
21	0xbe8edb37	-0.27901623
22	0xbdf69e2b	-0.12041887
23	0xbe2d4059	-0.16919078
24	0xbda48124	-0.08032444
25	0xbe0be056	-0.13659796
26	0xbe0bc450	-0.13649106
27	0xbd3453f1	-0.044025365
28	0xbd72971a	-0.059226133
29	0xbf135562	-0.5755216
30	0x3b8f4fce	0.004373527
31	0xbe06a14b	-0.13147466
32	0xb996ff19	-0.00028800292
33	0xbe6492e9	-0.22321667
34	0xbe03ae80	-0.12859535
35	0xbd26c9df	-0.040719863
36	0xbd480afc	-0.0488386
37	0xbcf9a60d	-0.030474687
38	0xbd9c3dae	-0.07628952
39	0xbdc3582d	-0.095383026
40	0xbe04400e	-0.1291506
41	0xbd80add7	-0.06283157
42	0xbd280969	-0.0410246
43	0xbe6d3128	-0.23163283
44	0xbe4353f8	-0.19075
45	0xbde5c743	-0.11219647
46	0xbe269448	-0.16267502
47	0xbdb124fa	-0.08649631
48	0xbd1f494a	-0.038888253
49	0xbe4309a7	-0.19046651
50	0xbd653e86	-0.05596783
51	0xbca8d722	-0.020610396
52	0xbde0c4ce	-0.109750375
53	0xbd9bf0f8	-0.076143205
54	0xbdcb0738	-0.09913486
55	0xbd5b4ed6	-0.05354198
56	0xbdd6d3ca	-0.10489614
57	0xbe086741	-0.13320638
58	0xbe393e52	-0.1809018
59	0xbd0d764d	-0.03453665
60	0xbe019da1	-0.12657787
61	0xbd98e1df	-0.074649565
62	0xbe19f0d1	-0.1503327
63	0xbdb3a439	-0.08771557
64	0xbc675d0d	-0.014121306
65	0xbdaca269	-0.08429415
66	0xbb502350	-0.003175933
67	0xbd2bb8fe	-0.04192447
68	0xbe12f02c	-0.14349431
69	0xbdbcb412	-0.09214033
70	0xba4a09bf	-0.0007707141
71	0xbd1040de	-0.035218112
72	0xbdd57cc4	-0.10424188
73	0xbe3857ab	-0.18002193
74	0xbd97bc3f	-0.07408952
75	0xbb415bde	-0.002950422
76	0xbdb90fd5	-0.09036223
77	0xbd2b5618	-0.041830152
78	0xbdf251e1	-0.118320234
79	0xbd545ef7	-0.051848378
80	0xbdab2055	-0.08355776
81	0xbb8cdae3	-0.0042985543
82	0xbdc9a637	-0.09846156
83	0xbdc0fca2	-0.09423186
84	0xb9b67434	-0.00034800323
85	0xbdd15df0	-0.10222995
86	0xbd464abd	-0.04841112
87	0xbdfbfc51	-0.12303985
88	0xbdf1121f	-0.117710344
89	0xbe14febc	-0.14550298
90	0x3a73e12e	0.0009303269
91	0xbcc129b7	-0.023579462
92	0xbde8696d	-0.11348233
93	0xbdc60c18	-0.096702754
94	0xbe2cf622	-0.16890767
95	0xbdb58c5b	-0.08864661
96	0xbdc865a0	-0.097850084
97	0xbd83ca7c	-0.06435105
98	0xbd8613f3	-0.06546774
99	0x3cdc06aa	0.026858646
100	0xbdcdf4f5	-0.100564875
101	0xbe305b2e	-0.17222282
102	0xbe0a9f8a	-0.13537422
103	0xbdc259fa	-0.09489818
104	0xbba293c2	-0.0049614618
105	0xbdffb624	-0.124859124
106	0xbd82edd0	-0.063930154
107	0xbe1c60cd	-0.15271302
108	0x3c4e5a0c	0.012594711
109	0x3ccd4c6b	0.025060853
110	0xbe121fe4	-0.14269978
111	0xbd137c3f	-0.036007162
112	0xbdfbc6ac	-0.12293753
113	0xbe25ad25	-0.1617933
114	0xbd1fa7db	-0.03897844
115	0xbd2ac77e	-0.041694157
116	0xbd158183	-0.036500465
117	0xbd6c3f8a	-0.057677783
118	0xbdb571cd	-0.088595964
119	0xbdb0a777	-0.086256914
120	0xbe182c61	-0.14860679
121	0xbdfb9505	-0.122842826
122	0xbd9d86f1	-0.07691754
123	0xbd93506b	-0.07193073
124	0xbe2f209b	-0.17102282
125	0xbd9124bb	-0.07087084
126	0xbc34c27e	-0.011032699
127	0xbc7110c5	-0.014713471
128	0xbe12a99f	-0.14322518
129	0xbbe0e1a3	-0.0068628355
130	0xbd54569f	-0.05184042
131	0xbde1d8c8	-0.11027676
132	0xbde0b9f5	-0.109729685
133	0xbe1c71ad	-0.15277739
134	0xbd27ff89	-0.04101518
135	0xbb4f31fb	-0.0031615484
136	0xbd851f9f	-0.06500172
137	0xbe42413e	-0.189702
138	0xbe2f9419	-0.17146339
139	0xbdaa3413	-0.083107136
140	0xbdc813b2	-0.097693816
141	0xbdfaa0e1	-0.122377165
142	0x3a57e8cb	0.0008236288
143	0xbda1b91b	-0.07896634
144	0xbde5b413	-0.11215987
145	0xbe00b4a2	-0.12568906
146	0xbe37ccf7	-0.17949282
147	0xbe0444b0	-0.12916827
148	0xbd87cb6c	-0.066305965
149	0xbde6e8dc	-0.11274883
150	0xbe3b7095	-0.18304665
151	0xbd63ffaf	-0.05566376
152	0xbdd6b886	-0.10484414
153	0xbcf32815	-0.029682199
154	0xbe2188ac	-0.15774792
155	0xbda2674a	-0.07929857
156	0xbdf95318	-0.12174052
157	0xbd51d20a	-0.0512257
158	0xbdc2828e	-0.094975576
159	0xbdaaf08c	-0.08346662
160	0xbbb41fa9	-0.0054969382
161	0xbe00e081	-0.12585641
162	0xbd58aea8	-0.05290094
163	0xbd9499d5	-0.07255904
164	0xbe063c89	-0.1310903
165	0xbe2fb3df	-0.17158459
166	0x3b003461	0.001956247
167	0xbdbc3362	-0.09189488
168	0xbd9c272f	-0.07624661
169	0xbd8a0de6	-0.06740932
170	0xbd9374ea	-0.07200034
171	0xbda5dae4	-0.08098391
172	0xbdb47764	-0.088118345
173	0xbe419e23	-0.1890798
174	0xbe135e66	-0.14391479
175	0xbd4d5036	-0.050125323
176	0xbe1df12b	-0.1542403
177	0xbe5cc813	-0.21560697
178	0xbe05f043	-0.13079934
179	0xbdc0f877	-0.09422391
180	0xbda1a1d9	-0.07892198
181	0xbd915606	-0.07096486
182	0x3b44dd19	0.003003901
183	0xbdc09620	-0.09403634
184	0xbdd64f1e	-0.10464309
185	0x3d3e3071	0.046432916
186	0xbe04aa28	-0.12955534
187	0xbdd317de	-0.10307287
188	0xbd5bfbdf	-0.053707
189	0xbd9ad497	-0.075600795
190	0xbda596cc	-0.08085403
191	0x3d3c5fcd	0.0459898
192	0xbdcb6e0d	-0.099331
193	0xbccb281c	-0.0247994
194	0xbe2ea473	-0.1705492
195	0xbdd1860e	-0.10230647
196	0xbdbc647f	-0.091988556
197	0xbdc61ad9	-0.096730895
198	0xbe51d029	-0.20489563
199	0xbe547518	-0.20747793
200	0xbdb3189f	-0.087449305
201	0xbd873ea6	-0.06603746
202	0xbdd697b2	-0.10478152
203	0xbd8d0ee8	-0.06887609
204	0xbe2f77ad	-0.17135496
205	0xbd56b3e7	-0.052417662
206	0xbce77cec	-0.02825781
207	0xbdedd0db	-0.11612102
208	0xbe0058a3	-0.12533812
209	0xbe30eb7f	-0.17277335
210	0xbd79a252	-0.060945816
211	0xbe79de65	-0.24401243
212	0xbdd925a1	-0.1060288
213	0xbde6060d	-0.11231623
214	0xbdbe2255	-0.09283892
215	0xbd521e71	-0.051298562
216	0xbe0c0681	-0.13674356
217	0xbd63153a	-0.055440165
218	0xbd2cc4d4	-0.042179897
219	0x3bbc06d7	0.00573812
220	0xbd6b2aae	-0.05741375
221	0xbd56f109	-0.052475963
222	0xbd309829	-0.04311386
223	0xbc8c1e42	-0.017104272
224	0xbd44f6b6	-0.048086844
225	0xba072780	-0.0005155727
226	0xbc2a354b	-0.010388683
227	0xbe181ce3	-0.1485477
228	0xbd67cd02	-0.056591995
229	0xbd12222a	-0.035677113
230	0xbe2003d1	-0.15626456
231	0xbe18fe61	-0.14940788
232	0xbe15962c	-0.14608067
233	0xbd64daa7	-0.055872586
234	0xbdb42149	-0.08795411
235	0xbdb8bda9	-0.0902055
236	0xbd8268ce	-0.06367646
237	0xbcbed811	-0.023296388
238	0xbe153d83	-0.14574246
239	0xbe1d9486	-0.15388688
240	0xbdae1584	-0.085001975
241	0xbe58a947	-0.21158324
242	0xbe0910ca	-0.13385311
243	0x3c007d61	0.007842393
244	0xbda20298	-0.07910651
245	0xbd145771	-0.036216203
246	0xbd9c9c2d	-0.07646976
247	0xbe003d4c	-0.12523383
248	0xbbc49cd1	-0.0060001393
249	0xbdf028e8	-0.11726552
250	0xbe0b9e40	-0.13634586
251	0xbdb5cbb9	-0.08876748
252	0xbda11797	-0.078658275
253	0xbd9b1202	-0.07571794
254	0xbe12bc75	-0.14329703
255	0xbe17f618	-0.14839971

weight f4 [128, 256]
0	0x3bc3bee4	0.0059736837
1	0xbe005adf	-0.12534665
2	0xbdb5df23	-0.088804506
3	0x3e20c62a	0.15700594
4	0x3ccf994b	0.02534165
5	0x3d202e11	0.039106432
6	0xbd116cd4	-0.035504177
7	0x3df60e96	0.12014501
8	0x3e383b57	0.17991386
9	0xbe05ed23	-0.13078742
10	0xbd22351c	-0.03960143
11	0xbc4ef996	-0.012632748
12	0xbdd02c95	-0.10164753
13	0x3cab4c3d	0.020910377
14	0x3bebda13	0.0071976273
15	0xbd8e473f	-0.06947183
16	0x3e53d359	0.20686091
17	0x3e1932fc	0.14960855
18	0x3d164031	0.03668231
19	0x3db1ff6a	0.086912945
20	0xbe04b790	-0.12960649
21	0xbaf69e54	-0.0018815496
22	0xbd42bc1d	-0.04754268
23	0x3e17f279	0.1483859
24	0xbe13d15c	-0.14435333
25	0x3d9ff95f	0.07811236
26	0xbd478443	-0.04871012
27	0xbcc3664e	-0.023852494
28	0xbbca8b66	-0.0061811684
29	0x3cc09b67	0.023511602
30	0x3c1068a3	0.00881401
31	0xb9d8e7cd	-0.00041371436
32	0xbc7183a4	-0.014740858
33	0x3e0cb701	0.13741685
34	0xbd391f14	-0.045195654
35	0x3c725c61	0.014792533
36	0x3e770bfd	0.24125667
37	0x3d6cfd70	0.057858884
38	0xbdc08ce9	-0.094018765
39	0xbe41da7b	-0.18931
40	0x3b357ecd	0.0027693987
41	0x3bbb28a5	0.0057116323
42	0x3cc79257	0.024361772
43	0xbcf022d8	-0.02931349
44	0xbe057611	-0.1303332
45	0xbe226826	-0.15860042
46	0xbc03c561	-0.008042664
47	0x3dd7a282	0.10529043
48	0xbda4579e	-0.08024524
49	0xbd05fc8a	-0.032711543
50	0xbcf7d89e	-0.030254658
51	0xbdd12ab4	-0.10213223
52	0x3e052576	0.13002571
53	0xbd53bc02	-0.05169297
54	0xbda96c88	-0.08272654
55	0xbd3cc671	-0.046087686
56	0xbdcdd182	-0.10049726
57	0x3d38ec4d	0.04514723
58	0xbc1df44f	-0.009640767
59	0xbd8d2e91	-0.068936475
60	0xbdb2647c	-0.08710572
61	0x3d9faae3	0.07796266
62	0x3c0b0826	0.008485829
63	0xbe573523	-0.21016364
64	0xbcb18e21	-0.021674218
65	0xbe03f267	-0.12885438
66	0x3b33ce8c	0.0027436344
67	0x3c883922	0.016628806
68	0xbd659102	-0.056046493
69	0xbcebc27f	-0.028779266
70	0x3cc65af5	0.024213294
71	0xbdce7023	-0.10079982
72	0xbe6d6ae8	-0.23185313
73	0xbdc653dc	-0.09683964
74	0xbc7886c3	-0.015168848
75	0xbdcb8ee3	-0.09939363
76	0x3d705af7	0.0586805
77	0x3d816950	0.06318915
78	0x3dcb9728	0.0994094
79	0x3d4b2d6b	0.04960386
80	0xbcc1323c	-0.023583524
81	0x3d68ba3a	0.056818224
82	0xbcbe4c24	-0.023229666
83	0x3d0e23d0	0.034702122
84	0x3d451fd6	0.048126064
85	0x3d01cc29	0.031688843
86	0xbe28c93c	-0.16483015
87	0xbd86bcab	-0.06578954
88	0xbe0d00b0	-0.13769794
89	0x3d952b9f	0.07283711
90	0xbcb914b7	-0.022592885
91	0xbba9b201	-0.0051786904
92	0xbe06bc92	-0.13157871
93	0xbd9cebe0	-0.07662177
94	0xbd4d9dab	-0.050199192
95	0xbc9e8952	-0.019352589
96	0x3b881729	0.0041531515
97	0xbdf67099	-0.12033195
98	0xbbd8dc57	-0.0066180634
99	0x3c115cb2	0.008872198
100	0xbd50bbc0	-0.050960302
101	0x3dd5f052	0.10446228
102	0xbd23514a	-0.039872445
103	0xbd7b8d21	-0.061413888
104	0x3d16926a	0.036760725
105	0xbe0a82bf	-0.13526438
106	0xbb321b93	-0.002717708
107	0xbcdbb2cf	-0.026818661
108	0xbd2a21ee	-0.041536264
109	0x39a031f2	0.0003055479
110	0x3ce8076f	0.028323857
111	0xbd8003bf	-0.062507145
112	0x3d119392	0.035541125
113	0x3dff68eb	0.124711834
114	0x3d315eb6	0.043303214
115	0x3d5a6beb	0.053325575
116	0xbe2f5c0b	-0.17124955
117	0xbc3cc7b3	-0.011522221
118	0xbc1c1fe3	-0.009529087
119	0xbc821280	-0.015877962
120	0x3d4705d1	0.04858953
121	0x3d810fa7	0.063018136
122	0xbcf31575	-0.029673317
123	0xbc6c00f9	-0.014404529
124	0xbc83edfd	-0.016104693
125	0xbd55b8f4	-0.05217834
126	0xbd17ae72	-0.0370316
127	0xbcadd094	-0.021217622
128	0x3c13b10b	0.009014378
129	0xbe1db278	-0.15400112
130	0x3d94a416	0.072578594
131	0xbd929bdd	-0.07158635
132	0x3c39604b	0.011314462
133	0xbd96f1b4	-0.0737032
134	0xbd881227	-0.06644087
135	0xbe07494e	-0.13211557
136	0xbddc99b5	-0.10771505
137	0xbd07ff6a	-0.033202566
138	0x3df14c04	0.11782077
139	0xbd9e596b	-0.07731899
140	0xbdb64897	-0.08900564
141	0xbe83019f	-0.25587174
142	0xbe131291	-0.14362551
143	0xbbcca7fc	-0.0062456112
144	0xbd403178	-0.046922177
145	0x3cf57266	0.029961776
146	0xbd192742	-0.037390955
147	0x3e015f19	0.12633933
148	0xbcb3b34b	-0.02193608
149	0xbe5d674e	-0.21621439
150	0xbccd0c76	-0.025030356
151	0x3c699f8f	0.014259233
152	0x3dd724ff	0.10505103
153	0x3cbc65cc	0.02299776
154	0xbdfd70df	-0.12375044
155	0x3de698d4	0.112596184
156	0xbc4035b9	-0.0117315585
157	0x3d990562	0.0747173
158	0xbd8f56ac	-0.06998953
159	0x3d73255e	0.059361808
160	0xbdc56f37	-0.09640353
161	0xbde1abf7	-0.11019128
162	0xbd53f3d4	-0.051746204
163	0xbd62bdab	-0.055356663
164	0xbd445034	-0.04792805
165	0xbe06129a	-0.13093033
166	0xbc4c61a6	-0.012474453
167	0x3d98763c	0.074444264
168	0x3e2a6176	0.16638741
169	0x3c063266	0.008190727
170	0x3d709305	0.05873396
171	0xbddedbeb	-0.1088179
172	0x3c627e80	0.013824105
173	0x3dd0c085	0.1019297
174	0xbc8a4e82	-0.016883139
175	0x3b0a99b7	0.002114875
176	0xbdb0fbfa	-0.08641811
177	0x3dd7bf7a	0.10534568
178	0x3cac1343	0.021005278
179	0x3d929578	0.07157415
180	0x3c8b6b0a	0.017018814
181	0xbbec361c	-0.007208599
182	0x3cbacab4	0.022801735
183	0xbdb15dfd	-0.08660505
184	0x3dd24ce0	0.10268569
185	0xbdb574c5	-0.08860163
186	0xbd5ee1a4	-0.054414406
187	0x3dca8390	0.09888375
188	0xbc85cb0c	-0.016332172
189	0xbde21b4a	-0.11040361
190	0x3b863dde	0.0040967306
191	0xbd864483	-0.06556036
192	0xbdc462ab	-0.09589132
193	0xbdeff519	-0.117166705
194	0x3d440be9	0.04786292
195	0xbde691dd	-0.1125829
196	0xbde729a5	-0.1128724
197	0xbd6d8084	-0.05798389
198	0xbc1a86a6	-0.009431517
199	0x3d619ad2	0.05507929
200	0xbe1873d8	-0.14887941
201	0xbdc6f79d	-0.09715197
202	0xbc7ed511	-0.015553729
203	0x3d367dae	0.04455345
204	0xbd47ec74	-0.048809484
205	0xbdc38fe6	-0.09548931
206	0xbc253d61	-0.010085435
207	0x3e0c68e2	0.13711885
208	0x3d7f6d79	0.06236026
209	0xbd6363a5	-0.05551495
210	0xbdf2cde6	-0.11855678
211	0xbdeaedbd	-0.11471126
212	0x3e808eca	0.2510894
213	0x3c5d3961	0.01350245
214	0xbd7b0d13	-0.061291765
215	0x3d16bd6a	0.036801733
216	0x3d827b9e	0.06371234
217	0x3d429412	0.047504492
218	0x3e495796	0.19662318
219	0xbd2bd739	-0.0419533
220	0x3d8ad254	0.06778398
221	0x3c450f1c	0.012027528
222	0x3c66d319	0.014088416
223	0xbd665f5d	-0.05624329
224	0x3e349734	0.17635804
225	0xbd785316	-0.060626112
226	0xbd5b7dff	-0.053586956
227	0x3d8a1258	0.0674178
228	0x3cd2c4ac	0.025728546
229	0x3cd79aed	0.026318992
230	0x3e0e9d24	0.13927132
231	0xbdb83a0d	-0.08995447
232	0x3e0d4a5d	0.13797899
233	0xbe0e7a84	-0.13913924
234	0x3e29a1a1	0.16565563
235	0xbd854f26	-0.06509237
236	0xbdbff22c	-0.093723625
237	0xbdc4b7e2	-0.09605385
238	0x3e314954	0.17313129
239	0x3da5dd20	0.08098817
240	0x3c5209d1	0.012819723
241	0xbdb2f77f	-0.087386124
242	0xbde55f73	-0.11199846
243	0xbe1544c4	-0.14577013
244	0xbccc1275	-0.024911145
245	0x3df16040	0.11785936
246	0x3b6664a3	0.00351552
247	0x3ddf217c	0.108950585
248	0xbd564685	-0.052313346
249	0xbccbe697	-0.024890227
250	0xbd114e66	-0.035475157
251	0x3d94146b	0.07230457
252	0xbc89e7e3	-0.016834205
253	0xbdd8c9db	-0.10585376
254	0xbeb6edc6	-0.35728282
255	0x3d00d071	0.031448785

bias f4 [128]
0	0xbd9a9b2a	-0.075491264
1	0xbc878f45	-0.016547808
2	0xbd877730	-0.0661453
3	0xbd9c30e4	-0.07626513
4	0xbddf7fe0	-0.10913062
5	0xbcc94d53	-0.024573004
6	0xbdb5e524	-0.08881596
7	0xbd21bf2f	-0.039488968
8	0xbe036ad8	-0.12833726
9	0xbcfe8981	-0.031071426
10	0xbe3b82fe	-0.18311688
11	0xbdeaa971	-0.114581
12	0xbd2d1132	-0.042252727
13	0x3e06ff86	0.13183412
14	0xbd8db239	-0.06918759
15	0xbdb68961	-0.08912922
16	0xbd735b97	-0.05941352
17	0xbded41b0	-0.115847945
18	0xbe0a1679	-0.13485135
19	0xbda77081	-0.08175755
20	0xbe062941	-0.13101675
21	0xbcf2f641	-0.029658439
22	0xbc45a7b5	-0.01206391
23	0xbd7f3702	-0.06230832
24	0xbc994204	-0.018708237
25	0xbde44854	-0.11146608
26	0xbd8a0852	-0.06739868
27	0xbdd0a942	-0.10188533
28	0xbd17f366	-0.037097357
29	0xbd02b273	-0.031908464
30	0xbdc39036	-0.095489904
31	0xbd9760d2	-0.07391514
32	0xbd838ea5	-0.06423692
33	0xbd95f887	-0.073227935
34	0xbe3cfd05	-0.18455894
35	0xbd8519a8	-0.06499034
36	0xbcafb850	-0.021450192
37	0xbdf22f51	-0.11825431
38	0xbd6ce3c2	-0.057834394
39	0xbd9ce164	-0.07660177
40	0xbe11ac39	-0.14225854
41	0xbcd400f5	-0.025879363
42	0xbd6d8726	-0.057990216
43	0xbdcc52a9	-0.09976704
44	0xbda4a803	-0.08039858
45	0xbcde30f7	-0.027122958
46	0xbce950a5	-0.028480837
47	0xbda86a24	-0.0822337
48	0xbdb2ee46	-0.08736853
49	0xbcd7289b	-0.02626448
50	0xbd992396	-0.074774906
51	0xbdfdcc7b	-0.12392517
52	0xbd869356	-0.06571071
53	0xbcf1df63	-0.029525464
54	0xbd42145a	-0.04738269
55	0xbe33ba3c	-0.17551512
56	0xbd7c010e	-0.061524443
57	0xbd35e37d	-0.044406403
58	0xbd416be1	-0.047222022
59	0xbd33f0aa	-0.043930687
60	0xbd82a9dd	-0.06380055
61	0xbcf3c7d3	-0.02975837
62	0xbdc8e4fe	-0.09809302
63	0xbd5223c9	-0.05130366
64	0xbdb6c5ae	-0.08924423
65	0xbe047fb3	-0.12939338
66	0xbc9876ea	-0.01861139
67	0xbd803652	-0.06260361
68	0xbde8e871	-0.1137246
69	0xbdb5888f	-0.08863937
70	0xbd9e9a20	-0.07744241
71	0xbd5effda	-0.054443218
72	0xbe039d80	-0.1285305
73	0x3d6b7787	0.057487037
74	0xbd11e1ea	-0.03561584
75	0xbdcbf6a9	-0.09959156
76	0xbceee7e9	-0.029163318
77	0xbd9e501a	-0.07730122
78	0x3bc7fa1e	0.0061028143
79	0xbd0f2924	-0.034951344
80	0x3e06a852	0.13150147
81	0xbd167a43	-0.03673769
82	0xbd04b5d3	-0.032399964
83	0xbd611af9	-0.054957364
84	0xbd81039f	-0.06299519
85	0xbd145073	-0.036209535
86	0xbd032869	-0.03202096
87	0xbd69ddfc	-0.057096466
88	0xbd882af0	-0.06648815
89	0xbd5cc05c	-0.053894386
90	0xbd08fa41	-0.033441786
91	0xbda965bb	-0.08271357
92	0xbe2b6fe4	-0.16741902
93	0xbdafdab3	-0.085866354
94	0xbca1a713	-0.019732988
95	0xbcae5fa5	-0.021285841
96	0xbd2f8968	-0.04285565
97	0xbd3f6a41	-0.04673219
98	0xbc4f46fc	-0.012651201
99	0xbd6273d5	-0.055286247
100	0xbb4a4fab	-0.003087024
101	0xbdfe1dcc	-0.12408027
102	0xbdabeb82	-0.08394529
103	0xbdb1defc	-0.08685109
104	0xbe317d94	-0.1733306
105	0xbd976367	-0.07392006
106	0xbd6108f1	-0.054940168
107	0xbd9172d3	-0.07101979
108	0xbdc18c72	-0.09450616
109	0xbd030c2d	-0.031994034
110	0x3d75f48e	0.06004768
111	0xbdb13da5	-0.08654336
112	0x3d1440c0	0.036194563
113	0xbdca95aa	-0.098918274
114	0xbe4ba1fe	-0.19886014
115	0xbd6f8514	-0.058476523
116	0xbe487e47	-0.19579421
117	0xbd019dcb	-0.031644624
118	0xbdcbd168	-0.099520504
119	0xbde9bd28	-0.11413032
120	0xbd511e53	-0.05105431
121	0x3e19bbb4	0.1501301
122	0xbdc2cf6c	-0.09512219
123	0xbd387428	-0.04503265
124	0xbcc596b9	-0.024119722
125	0xbde43ceb	-0.11144432
126	0xbd95bde8	-0.07311612
127	0xbd933086	-0.071869895

weight f4 [12, 128]
0	0x3c01d218	0.007923625
1	0xbcfc8254	-0.030823864
2	0xbc0cedd7	-0.008601627
3	0x3d69df2f	0.05709761
4	0xbd41af21	-0.047286157
5	0x3dbb79c2	0.09154083
6	0xbc3a6048	-0.011375494
7	0xba986ff9	-0.001163005
8	0x3c7b140c	0.015324604
9	0x3c992e43	0.018698817
10	0xbca5fcc5	-0.020262131
11	0xbd16b266	-0.036791228
12	0xbc03979b	-0.008031751
13	0x3dab4adc	0.08363888
14	0x3d509737	0.05092546
15	0x3d395613	0.045248102
16	0x3c7126bb	0.014718707
17	0xbccb80eb	-0.024841746
18	0xbd4380d4	-0.047730282
19	0x3ca42235	0.020035842
20	0xbc9dd585	-0.019266853
21	0xbb817680	-0.003950894
22	0xbadaf719	-0.0016705721
23	0xbce5b3c9	-0.02803983
24	0xbc2a8a6f	-0.010408982
25	0xbc5893b5	-0.01321881
26	0xbc94998e	-0.018139627
27	0xbb66b98d	-0.0035205812
28	0xbcbed0e2	-0.023292962
29	0x3cf26171	0.02958748
30	0x3d209481	0.039204124
31	0x3c8dba20	0.017300665
32	0xbd2762ce	-0.040865712
33	0x3cd07a46	0.02544893
34	0x3cbf586a	0.023357589
35	0xbc9951db	-0.01871579
36	0x3cd3c637	0.025851352
37	0x3a91ec67	0.0011133075
38	0x3d5e1dfd	0.054227818
39	0xbbfa08cb	-0.0076304427
40	0xbca5ebf5	-0.020254115
41	0x3d8c04d5	0.06836859
42	0xbcfe9af8	-0.031079754
43	0x3ca5ab76	0.02022336
44	0xbd950704	-0.07276729
45	0x3a7177ff	0.0009211301
46	0xbcf02b7f	-0.029317616
47	0xbd18a70a	-0.037268676
48	0x3d0ce132	0.03439445
49	0x3d0d1b84	0.03445007
50	0x3d15d602	0.036581047
51	0x3cef42ba	0.029206622
52	0xbd1b7f6a	-0.03796331
53	0xbdc8fdd5	-0.098140396
54	0x3b8566e6	0.0040711043
55	0xbc862f7c	-0.016380064
56	0xbc475a73	-0.012167561
57	0x3c931cf4	0.017958142
58	0x3cece924	0.028919764
59	0xbccb78cb	-0.024837872
60	0xbc925d33	-0.017866706
61	0xbc0ae300	-0.008476973
62	0x3d58ed6b	0.052960794
63	0xba630aad	-0.00086609536
64	0x3cbbf2c3	0.022942906
65	0x3d72f35b	0.059314113
66	0x3c4b7920	0.012419015
67	0xbbb96ebd	-0.005658953
68	0xbaaec84c	-0.001333484
69	0xbd4b96d9	-0.049704406
70	0xbc8637ac	-0.016383968
71	0xbba1b6fd	-0.004935144
72	0xbc35909d	-0.011081842
73	0x3d5a43ca	0.053287305
74	0x3c56bb4a	0.013106177
75	0xbd0bcfa1	-0.034133557
76	0xbcc81782	-0.024425272
77	0xbc959580	-0.018259764
78	0x3d021ec7	0.031767633
79	0x3cc885e6	0.02447791
80	0x3da6b3f9	0.08139796
81	0x3bb7b960	0.005606815
82	0x3d280e0e	0.04102903
83	0x3ca6b30c	0.020349048
84	0x3c0d5e60	0.008628458
85	0x3bffa2ea	0.0078014033
86	0xbc6d163b	-0.014470632
87	0x3d4f8141	0.050660376
88	0x3a28fb8b	0.0006446174
89	0xbd80cb1b	-0.06288739
90	0x3c1aa751	0.009439305
91	0xbd9d7824	-0.07688931
92	0xbbd73606	-0.0065677194
93	0xbbc85b48	-0.006114397
94	0x3d11a0b7	0.03555366
95	0xbd4afd69	-0.049558077
96	0xbb84c8b7	-0.0040522474
97	0xbc5fc8e0	-0.013658732
98	0x3d133e7a	0.035948254
99	0x3d13e7ad	0.036109615
100	0xbccf6550	-0.025316864
101	0xbd3cf563	-0.046132457
102	0x3d51ca43	0.051218282
103	0xbd40d3c7	-0.047076967
104	0x3c5ef738	0.013608746
105	0x3ba53eb2	0.0050428743
106	0xba5ccf23	-0.00084232
107	0x3aa676a2	0.001270015
108	0xbd1ff780	-0.039054394
109	0x3c940c61	0.018072309
110	0xbdbfdc77	-0.09368222
111	0x3c73d183	0.014881494
112	0xbc9386f4	-0.018008687
113	0xbca895a8	-0.020579174
114	0x3d94ce18	0.07265872
115	0xbd719627	-0.058981087
116	0x3d54dbe2	0.05196751
117	0x3ce2be70	0.027678698
118	0xbbeaa6b1	-0.0071609844
119	0x3b34fe58	0.002761742
120	0x3d51fdb8	0.051267356
121	0x3dc3229d	0.09528086
122	0xbd056b63	-0.032573115
123	0x3d8b02d9	0.067876525
124	0x3cdcd373	0.026956296
125	0x3d1bf533	0.038075637
126	0xbc20afb6	-0.009807518
127	0xbcc66425	-0.024217675
128	0xbd3118ca	-0.04323653
129	0xbd6c0a9b	-0.0576273
130	0xbc369c14	-0.01114561
131	0x3d5d3e94	0.054014757
132	0xbcd7da7d	-0.0263493
133	0xbe209ddc	-0.15685219
134	0x3cae7f6c	0.021300994
135	0xbc271ec7	-0.010200209
136	0xbd420eb3	-0.0473773
137	0x3d7c050e	0.061528258
138	0xbd0ac1e8	-0.03387633
139	0x3d5ba7b0	0.053626716
140	0xbd432967	-0.047646906
141	0x3dc77eab	0.09740957
142	0xbd58da3b	-0.052942496
143	0x3df2cd3b	0.11855551
144	0xbd1db053	-0.038498234
145	0x3c839c74	0.016065814
146	0xbccf0422	-0.025270525
147	0x3ba4ab22	0.0050252834
148	0x3d74b0ba	0.059738852
149	0xbd3b9e7f	-0.04580545
150	0x3d7da778	0.06192729
151	0xbd487ff2	-0.048950143
152	0x3c77f126	0.015133178
153	0xbc2b19fe	-0.010443209
154	0x3bdbb325	0.0067047053
155	0x3cd6af07	0.026206506
156	0x3e155d0e	0.14586279
157	0x3c51f8cd	0.012815666
158	0x3bc1dfc8	0.0059165694
159	0xbcb46aaa	-0.022023518
160	0xbdc969f1	-0.0983466
161	0x3cef0494	0.029176988
162	0x3dd4a1b3	0.10382404
163	0xbbf55ba2	-0.00748773
164	0x3ce88323	0.028382843
165	0xbdbc57be	-0.09196423
166	0x3d77ca0b	0.060495418
167	0x3d30c752	0.043158837
168	0xbd4a3267	-0.049364474
169	0xbc35247d	-0.011056063
170	0x3d297e2b	0.04138009
171	0x3c5669e5	0.013086771
172	0x3b265516	0.0025380305
173	0xbd0f1b40	-0.034938097
174	0x3c0f70f4	0.0087549575
175	0xbc78ff00	-0.0151975155
176	0xbceafdfc	-0.028685562
177	0xbe390305	-0.18067558
178	0x3cbe8d6b	0.023260793
179	0x3baa1ba6	0.005191284
180	0xbc9d816a	-0.019226748
181	0xbd0f8324	-0.035037175
182	0x3d288261	0.041139964
183	0xbc3e12a9	-0.011601129
184	0x3c8332e1	0.016015472
185	0x3c5ed3ff	0.0136003485
186	0x3d8773f3	0.066139124
187	0x3bbaff0a	0.0057066726
188	0x3b858991	0.004075237
189	0x3d2c5542	0.042073496
190	0xbb5a9582	-0.0033353274
191	0xbd43533a	-0.047686793
192	0xbd9ea5d2	-0.077464715
193	0xbc7ec2f5	-0.015549411
194	0x3c78f0a4	0.015194092
195	0x3d7e5bdf	0.062099334
196	0xbd162a8c	-0.03666167
197	0xbd9dad63	-0.076990865
198	0x3d6a7dcc	0.057248875
199	0x3cd0cfe8	0.025489762
200	0xbd916c43	-0.071007274
201	0x3c106754	0.008813698
202	0xbd8aac67	-0.067711644
203	0xbc4fd11b	-0.012684132
204	0x3d63384a	0.055473603
205	0xbc194bcc	-0.00935645
206	0x3ba30388	0.004974786
207	0x3cda8dcf	0.026678948
208	0xbd19311d	-0.037400354
209	0xbc4a0727	-0.012330807
210	0xbc37dd7a	-0.011222238
211	0x3b80b08c	0.003927296
212	0xbc7213cb	-0.014775227
213	0x3d4b7fb2	0.049682327
214	0xbcbda4f2	-0.023149941
215	0xbc7b3987	-0.01533354
216	0xbacc49c0	-0.0015585944
217	0x3d09945d	0.033588756
218	0x3d4579c1	0.048211817
219	0x3b75a6b7	0.0037483403
220	0xbba71e87	-0.0051000747
221	0xbc95cf93	-0.018287456
222	0xbbc6dd46	-0.0060688583
223	0xbb76929a	-0.0037624002
224	0x3d12bcf1	0.03582472
225	0x3c025877	0.007955662
226	0x3ced84f6	0.028994065
227	0x3d30c984	0.04316093
228	0xbd5b22ce	-0.05349999
229	0xbcc2730f	-0.023736505
230	0xbcabe3b7	-0.020982606
231	0xbd4dc17a	-0.05023334
232	0x3d30c739	0.043158744
233	0x3d2b3db8	0.041806906
234	0x3d5a24fc	0.053257927
235	0xbcccba7b	-0.024991265
236	0x3d300942	0.04297758
237	0x3d94cd49	0.072657175
238	0x3d75d769	0.060019884
239	0x3cab5c0b	0.020917913
240	0x3a25ba02	0.0006321968
241	0x3c04d2b3	0.008106875
242	0x3c23658e	0.009972943
243	0x3d953768	0.072859585
244	0xbd82e54b	-0.063913904
245	0x3d0e8206	0.03479197
246	0xbcf6f99c	-0.03014832
247	0x3e03d073	0.12872486
248	0xbc2ac826	-0.010423696
249	0xbbdf2948	-0.006810341
250	0xbc424388	-0.011856921
251	0x3e19f79f	0.15035866
252	0xbc7c46c5	-0.015397732
253	0xbd9cb1b9	-0.076510854
254	0xb92bfa15	-0.00016400994
255	0x3c001394	0.007817168

bias f4 [12]
0	0x3c6d8bbe	0.014498649
1	0x3dffcb9c	0.12490007
2	0xbe8733ee	-0.26406807
3	0xbdbf98fc	-0.09355351
4	0x3dbc38e7	0.09190541
5	0xbe1e8da2	-0.15483716
6	0xbcb2ddd7	-0.021834297
7	0x3c22ef19	0.009944701
8	0xbe8f7ff8	-0.2802732
9	0x3d728620	0.059209943
10	0xbc41a97c	-0.011820193
11	0xbe26077c	-0.16213793
