src/rl_sar/models/a1_isaacsim/policy_flat_handstand.pt (torch, 775392 bytes, 8 tensors)

weight f4 [512, 48]
00000000: 0e83 2c3d ed3c 753c 3776 513e 0acf 13be
00000010: c714 07be faea 693b bc3c 603b 4529 a43d
00000020: ca60 893d 6ae0 bbbc ef2c 0d3e a7cf 0b3e
00000030: 8df8 9e3c 778d ea3d 35e6 acbd 543b 34be
00000040: ca7a 443d 3969 c83c 0f34 f83c c882 91be
00000050: 88d1 18be 2b68 913e def2 dc3d ff7a 593e
00000060: a5b1 053d 91ca 963c a208 103e 1b13 293d
00000070: 5e21 643e cab4 243e cdb6 1bbb d98f 7a3c
00000080: c404 1e3e a525 1e3e 1e7e 52bd fa4a 23bc
00000090: 1ca7 323d d01e dfbd 082e de3c eac7 09be
000000a0: 8cce 85bd 8fbe a5bd 3345 80bd 7dff 67bd
000000b0: 2db7 67bc fc1a 2dbd c04c fc3d 4c2f 3e3b
000000c0: 6c67 23be 1e27 29be bc8c ca3d fd36 c0bd
000000d0: 4f53 b4bd 4cbd 423e b030 7a3e c063 3cbd
000000e0: d1c4 7a3d 116d 09be f360 083c d9ce 433d
000000f0: fb07 7f3d 56e6 1bbe f746 183e ca49 1f3d
00000100: fb55 b13d 4208 593d bf77 91be 2f37 2e3c
00000110: 88c9 95bd 9de3 4c3e 3181 6b3e fc31 403e
00000120: ab6a 5c3d f3ed e83c 3ba0 81bd 1944 be3d
00000130: c90f bb3d 8626 23bd 674a 2abe 6ad7 1c3d
00000140: 72a5 9c3d 27fe 3dbd f2d0 85bd ddf0 f83c
00000150: 1ede c83d 574e fb3d 3b19 6d3c d5d3 74bc
00000160: ba43 0c3e ee93 f4bd 9986 29bd c1e8 96bc
00000170: ef3a 3fbd 58bc 75bd 0f70 0abe 5a9c 1bbe
00000180: 03ad d83d 1124 723e 74e5 1c3e dd62 b63d
00000190: 63c5 843e 86fc 1ebe 8527 263d 3ff1 bbbd
000001a0: 5763 463e 1ef6 4d3d e2ab e73d e895 113d
000001b0: 238f 663e 77cb cfbd d31a eabc d2e9 0c3e
000001c0: 6902 993d d039 96bc 2d75 353e 6ed5 233e
000001d0: 4806 643c 83cf 8dbe 2c06 a9bb a45e c83d
000001e0: 776b 58be e99a 293d 9edd 903d a75b 71bd
000001f0: a527 eebc 8784 53bc d716 ad3d 27f1 76bd
00000200: bf76 953d 0841 80bc cf93 c93d dfce bd3d
00000210: 985d 0e3e 9d91 143d 8129 de3c 34d6 32bd
00000220: 4a30 e33c 697b a2bd 0bcc bfbd d5cf 86bb
00000230: 3c91 3fbd 6e41 b3bd 94fd a0bd 527b e4bd
00000240: 1da5 18be 3818 a1bb a987 ab3b 338f a03d
00000250: aa1a ecbd 51e0 bb3e a098 353e a908 88be
00000260: f7da b4bd f046 76bb 769a 4c3d 0030 55bd
00000270: 14e4 013d 6345 5c3e a6d0 81bd cf06 92bd
00000280: ffd3 01bd 5c6e 3cbe 5716 11be c507 3cbe
00000290: e230 1b3e 9970 2fbe 28d8 553e 9822 5bbd
000002a0: 9877 303e 0e5f ab3d 12d8 c23d 98c3 c7bd
000002b0: 37ab e73d 0437 b1bd bed7 b43d 7231 d83d
000002c0: c350 0bbd a8d4 e1bd eede f33d a153 e93d
000002d0: c5b1 b73d 3958 7dbc 8f63 35bc c1b8 d3bd
000002e0: 4fcf da3c 2ad3 a63c beb2 ff3d 6591 9bbd
000002f0: 6288 7ebc ab3b 6a3d 9072 e2bd 65d7 4fba
00000300: 9e91 15be 07a8 983c cf7f ebbd 160e bcbd
00000310: 858e 17be 9bd6 afbd 9b3c 403e 92e7 24be
00000320: 5d4f e13d a543 053d 3800 e7bd a532 003d
00000330: e306 c7bd 7692 aabd 74f2 8b3e ce48 f9bd
00000340: 5df4 38be 85cf 8fbe f19b 3dbe 4103 12be
00000350: 9f1c 363e bfe2 29be 7bca 173e ce09 febc
00000360: 7ff9 a03d 8839 0bbe dc26 c3bd fd3a 17be
00000370: 4fd4 ac3d 852e 1a3d c293 6ebe 74bc 013e
00000380: 7155 043e e982 96bd 7a3a 263e b35f 03be
00000390: e434 0d3b 9b38 c6bb 9982 9dbd e794 a43c
000003a0: 270f 05bd 4393 eabc bc1d 253d 2fac 813d
000003b0: 18e4 76bc ac3d 843d 9e52 62bd e753 ad3d
000003c0: de7d 99bc 7961 063e 992f 0bbc 7730 b93d
000003d0: b419 483d 6ec5 3a3c c1ac 783e 7e5e d83d
000003e0: 041c 763e 1154 8cbd 48e0 e2bb 5dc0 afbd
000003f0: 167a b73a 2013 6d3e 4de8 17bd 46d0 0bbd
0.04211717 0.014968139 0.20455252 -0.14434448 -0.1319152 0.0035693035 0.0034215888 0.08015684
0.06707914 -0.022934157 0.13786672 0.13653432 0.019405628 0.114527635 -0.08442346 -0.17600757
0.047968663 0.024464237 0.030298261 -0.2842009 -0.1492368 0.28399786 0.10788511 0.21238326
0.03264012 0.018407138 0.14065793 0.041277986 0.22278354 0.1608459 -0.002376008 0.015293085
0.15431505 0.15444048 -0.051389806 -0.009966606 0.0436164 -0.10894549 0.027121559 -0.13455167
-0.06533536 -0.08092987 -0.06263199 -0.056640137 -0.014142794 -0.042262062 0.123193264 0.002901989
-0.15957421 -0.16518828 0.09890124 -0.09385488 -0.08804952 0.19017524 0.24432635 -0.045993567
0.061222855 -0.13420512 0.008323896 0.047804687 0.06226347 -0.15224585 0.14870821 0.03888873
0.086589776 0.05298639 -0.28411672 0.010633274 -0.0731383 0.20008703 0.22998501 0.18769068
0.053812664 0.028433776 -0.0632939 0.09290332 0.0913387 -0.03983166 -0.16629945 0.038291372
0.07648744 -0.046384957 -0.06533994 0.03038829 0.098079905 0.122708015 0.014471347 -0.014943083
0.1369771 -0.11942278 -0.041388128 -0.018421533 -0.046687063 -0.05999407 -0.1351931 -0.15196362
0.10579874 0.2364657 0.15321904 0.089055754 0.25931844 -0.15526018 0.040565033 -0.091768734
0.19373833 0.050283544 0.11312081 0.035543352 0.2251554 -0.1014623 -0.028577244 0.1376107
0.07471163 -0.018338114 0.1772048 0.15999386 0.013917513 -0.2769738 -0.0051582064 0.09783676
-0.21134745 0.0414075 0.0707352 -0.058925297 -0.029071638 -0.012910015 0.08451622 -0.060288575
0.0729804 -0.01565601 0.098426454 0.09267973 0.1390289 0.03627168 0.0271194 -0.04366131
0.027732987 -0.07933695 -0.0936509 -0.004114131 -0.046769366 -0.08752714 -0.07860866 -0.11156334
-0.14906736 -0.004916217 0.005234678 0.07839813 -0.11528523 0.36694577 0.17734003 -0.26569107
-0.08830827 -0.0037578903 0.049951993 -0.05204773 0.031711653 0.21510844 -0.06338625 -0.07130205
-0.031696316 -0.18401474 -0.14168678 -0.18362339 0.15155366 -0.17132796 0.20883238 -0.053499788
0.17233121 0.083677396 0.095138684 -0.097541034 0.113119535 -0.086530715 0.08830212 0.10556306
-0.034012567 -0.11026889 0.11907755 0.11392904 0.08969454 -0.015462928 -0.0110711 -0.103379734
0.02671018 0.020364363 0.12485264 -0.07596091 -0.015535446 0.05718581 -0.11057007 -0.00079285196
-0.1460633 0.01863481 -0.11498987 -0.09182374 -0.1480046 -0.085858546 0.18773119 -0.16103962
0.110014655 0.032535214 -0.112793386 0.0312983 -0.097181104 -0.083287165 0.27333415 -0.121720895
-0.18061967 -0.28088012 -0.18516518 -0.14259054 0.17784356 -0.16590403 0.14823334 -0.031010535
0.078600876 -0.13596165 -0.09528896 -0.14768596 0.08438932 0.03764202 -0.23298553 0.12669545
0.12923218 -0.07349188 0.16233245 -0.12829475 0.0021546418 -0.0060492284 -0.07690925 0.020090533
-0.032485154 -0.028634673 0.04031156 0.063316695 -0.01506903 0.064570755 -0.05525457 0.08463269
-0.018736776 0.1312312 -0.008495235 0.09042447 0.048852637 0.01139961 0.2428465 0.10564898
0.24034125 -0.06851972 -0.006923709 -0.08581612 0.0013998176 0.23151827 -0.037086774 -0.034134172

bias f4 [512]
00000000: 79c9 3bbd 9059 82bd 2e4b 7c3d 16a6 88bd
00000010: 2815 493d 9fa9 603d 49d0 803c b72f 453d
00000020: 4572 d3bc bbbe f33c 8b17 11bd 02b1 13be
00000030: 1e30 2f3d 64bc d13d d837 023d 4fd8 bf3d
00000040: 08d7 1bbd 89bc 6abd 41c0 87bc 9838 243b
00000050: 7120 58bb 0123 21bd 08a1 81bd 67ce 19be
00000060: 6783 d03d 931f a9bc c365 043e ddf2 1fbc
00000070: 75c1 7e3c 4ba4 ad3c a6b6 0bbe 994b 5fbd
00000080: 8afa 963b 53b4 913d 82f4 303d 4bf4 ebbd
00000090: 383d 88bd c895 cbbc 8acc dd3d aac9 c3b9
000000a0: 2098 eebc 0515 96bd 0f6b e73d c74e 1fbe
000000b0: fd9a 01be 517d 2ebb c038 8a3d d5d5 fabd
000000c0: 4e0f 9b3d 8b15 2abd acfd 1d3d 4d30 5b3d
000000d0: 95a5 833d a685 d2bd 1ee5 75bd ef85 70bc
000000e0: f5f1 ef3d dd8a 383e 3be1 a9bd 89fd 3bbe
000000f0: 4c58 3a3c abab 5e3c 1c14 c33c 52ea 9b3d
00000100: 66dc a43d 039c f13c 614a 223d 8d1d 8f3d
00000110: 4ff5 0f3d 71f2 2abe 0ad0 8a3d cc17 0c3e
00000120: 7248 93bc b113 393d 5630 8c3d cea6 a13d
00000130: cbf4 173e bacd 223e 8355 89bd 718e a93d
00000140: 119c bebd b031 80bd 658a c1bd bacb c0bd
00000150: 0ebc 32bc 0734 8a3d c4e6 c3bc 2461 04bd
00000160: a217 94bd e68f 47bd e486 14be 701f 1d3d
00000170: a181 143d a978 0f3e f67f 193c 1155 c63d
00000180: 1ea3 b8bd bc68 de3d a58b 863d 00e3 86bd
00000190: a960 6dbc 6f7c c43d 45f5 85bd fa40 5cbd
000001a0: e2bc 20bd 2108 673d 81b1 bdbd 74c1 b4bd
000001b0: ec90 9bbd 4ef6 dbbd c390 8e3d 78ef 3dbd
000001c0: 4578 a0bc 2203 66bd a59d 4cbd 945d 7f3b
000001d0: 1093 973d d90e be3d 7745 cdbd 2b7c 4bbd
000001e0: 00bc 003e b860 73bd 8167 c7bd 00d1 f8bb
000001f0: ed07 8bbd 0552 183d 6cdf 88bd 413c 2bbe
00000200: 0855 56bd 20a4 bb3d 8baa a9bb 75c3 8dbd
00000210: 5432 0f3c ae84 193e 385d c83c b4db d53d
00000220: 59a8 b0bd 8c75 023e 37ea 7bbd 3849 e2bd
00000230: e430 253e 71b4 a5bd c6be a0bd 741b d43b
00000240: 09f3 d33d e58e 9fbb 5498 32bc 64dc e1bd
00000250: b6f7 ba3d ef18 f8bd f046 d73d 9474 b33d
00000260: 3d2c f03c 80b5 d23d 5367 a7bc 529d 723d
00000270: 7cad ec3d 76d9 13be bccc 0fbd 070c 46bd
00000280: 59a3 c0bd 0ce5 533a 6206 00be c3b5 d2bd
00000290: f708 933d 09fc 103e 476f 1dbd 4299 243c
000002a0: f696 31bd ab1c 8b3c db82 e63d 1848 d43d
000002b0: 8929 aa3d b337 653d ae00 e5bc 08b0 9e3c
000002c0: 2f06 cbbc b582 26be 2641 fe3d adbd 07be
000002d0: 94a9 2b3d 1441 fc3c 1b6a ee3d b7f1 83bb
000002e0: 1519 f3bd 9686 1bbc d0d2 0b3e a76b b63d
000002f0: e92c 193d ae2b afbc 57f1 5c3d 5884 c33c
00000300: ed26 033d 3648 4f3d c240 92bd e9eb 96bd
00000310: fd10 983b 1da0 083e f3c3 46bd 34fa 423d
00000320: 7a65 99bb defa f8bd 2c33 123e 0c17 973d
00000330: fcae e9bd a0c2 a13d b0e1 c63d b4a6 39bd
00000340: 515e fb3d 39a9 24be 64fa 06be 7f3a d63d
00000350: 07d8 be3b 092e 903d 7575 13bd ce2f c33c
00000360: b44b b4bd a089 fabd 569f ac3d e2bd 1bbe
00000370: 2ce1 803d fedd 023d d314 103d d73c 91bc
00000380: b44b 26bd d966 b03d 5a53 4dbc bede fa3d
00000390: 5c00 353e 4d8e 1ebd 107d 0e3d 9a1f 7fbd
000003a0: 23a0 f2bd 281c 96bd 2bc6 b53d fb6e 4fbd
000003b0: e496 293d b243 6dbd 0d79 24bd a13d 0b3e
000003c0: 1752 0a3e 371b 4cbd 1569 12be 7920 bd3c
000003d0: 960d 513d 347f abbd a1f0 fa3c 4426 b73c
000003e0: dc0f eabd 4e7d c73d 8115 92bd 8251 233d
000003f0: 1d6e 233d 1c90 023e 0ebf 0ebd 9e18 ae3d
-0.045846436 -0.06364739 0.061595134 -0.066723034 0.04909244 0.054849263 0.015724318 0.048141208
-0.025811324 0.029754033 -0.035422843 -0.14422992 0.042770498 0.10241011 0.031791538 0.093674295
-0.038046867 -0.057308707 -0.016571166 0.0025058147 -0.003297832 -0.039340023 -0.063295424 -0.15020142
0.10181313 -0.020644939 0.12929444 -0.009762493 0.015549053 0.021196505 -0.13643894 -0.054515455
0.0046075033 0.07114472 0.04320193 -0.115212046 -0.066523015 -0.024851695 0.10830028 -0.0003734355
-0.029125273 -0.07328228 0.11299717 -0.15557395 -0.1265678 -0.0026624987 0.067491055 -0.122478165
0.075712785 -0.04152445 0.038572 0.05351286 0.06428067 -0.10279398 -0.060032956 -0.01468037
0.117160715 0.18021722 -0.082949124 -0.18358435 0.011373591 0.0135907335 0.0238133 0.076130524
0.0804985 0.029493337 0.039621715 0.06988058 0.035146054 -0.16694047 0.067779616 0.13680953
-0.01797888 0.045184795 0.06845157 0.078931436 0.14839475 0.15898791 -0.06705763 0.08279122
-0.09307111 -0.06259477 -0.09450225 -0.09413858 -0.010909094 0.06748205 -0.023913749 -0.032319203
-0.0723107 -0.048721217 -0.14504582 0.03836006 0.036256436 0.14010872 0.009368887 0.09684194
-0.09015487 0.1085982 0.06569604 -0.065862656 -0.014488378 0.09594046 -0.06540922 -0.053772904
-0.039242633 0.056404237 -0.09262372 -0.08825961 -0.07596001 -0.10740338 0.06961205 -0.046370953
-0.019588599 -0.05615533 -0.04995503 0.003896569 0.07401097 0.09280176 -0.10023015 -0.049678963
0.12571716 -0.05941841 -0.09736539 -0.007593274 -0.06788621 0.037187595 -0.06683239 -0.16722204
-0.052327186 0.09162164 -0.005177801 -0.06922046 0.0087400265 0.1499202 0.024458513 0.10442296
-0.0862586 0.12740153 -0.06150266 -0.110491216 0.16131932 -0.08091057 -0.07848887 0.006472999
0.1034909 -0.0048693293 -0.010900576 -0.11028364 0.09129278 -0.12114131 0.10511577 0.0876247
0.02931797 0.10288525 -0.020435011 0.059232064 0.11556527 -0.14438424 -0.03510736 -0.048351314
-0.09406156 0.0008083142 -0.12502435 -0.102885745 0.07179444 0.14158644 -0.0384362 0.010046305
-0.04335686 0.016981443 0.112554274 0.10365313 0.083087035 0.055961322 -0.027954426 0.019371048
-0.024783222 -0.16260798 0.1241477 -0.1325595 0.04190977 0.03079275 0.11641332 -0.0040266174
-0.118700184 -0.009492537 0.13654637 0.08907252 0.037396345 -0.021383133 0.053941097 0.023866817
0.032019544 0.050605975 -0.07141258 -0.07369215 0.004640697 0.13342328 -0.048526715 0.047601894
-0.0046812864 -0.12157224 0.14277333 0.07377443 -0.11410329 0.0789845 0.09711015 -0.045324996
0.12273849 -0.16080178 -0.13181454 0.10460376 0.0058240923 0.070400305 -0.036000688 0.023826506
-0.08803502 -0.12233281 0.084288284 -0.15209153 0.06292948 0.03194999 0.03517611 -0.017729206
-0.04059954 0.08613367 -0.01253208 0.12249516 0.17675918 -0.038709927 0.034787238 -0.062285997
-0.1184695 -0.07329589 0.08875688 -0.05064295 0.041403666 -0.057925887 -0.040154506 0.13597728
0.13507877 -0.04983064 -0.14297898 0.023086773 0.051038347 -0.083738714 0.030632319 0.022357114
-0.11428806 0.09740697 -0.07133008 0.039872654 0.039899934 0.12750286 -0.034850173 0.08500789

weight f4 [256, 512]
00000000: a6c6 d0bc f022 18bd 4e81 8a3c af76 123c
00000010: faaa 3c3d 07df 94bc 72dd d53c 183b 4e3d
00000020: 6c4e 18bd 11a1 e0bc f1e5 5d3d 74b8 523d
00000030: 9ac9 2ebd 2a20 10bc fdb2 34be 6ac2 cebd
00000040: 20c4 b03b 047a 283d 1e69 9fbd 4ad8 9c39
00000050: 7675 803b 3203 14bd 7b27 ad3d dd34 e73b
00000060: 6607 453d 4899 c6bd 305c b3bd 4287 30bd
00000070: e36f 7d3d 62b6 873d 498e 92bc 34bb f43c
00000080: 68f5 8b3d 0f30 e3bc f600 f73c 5a8b 5dbd
00000090: 2a94 d2bd cc7a 1b3c 190e 20bd 42f2 b9bb
000000a0: 680f 72bc 1425 583d 8afb c63c 2eef 61bc
000000b0: e9be c83b 600e 3c3d 9be0 5a3d 0c31 b9bc
000000c0: 4c6b 5e3d 3411 bf3c 265f 86bc 9db7 733d
000000d0: 0aea 8b3b fe25 3e3c 1f54 7e3c 87a5 57bd
000000e0: 059e 97bb 98ae 7d3b 07d7 75bd 3c79 54b9
000000f0: cb22 b8bd 0019 d33c 1e12 a13c 2622 a0bc
00000100: 3c64 7a3c ebe5 593c 2f75 55bc f865 a4bc
00000110: 0ab2 80bc daa4 ae3d e4e3 61bd d8fa 3d3c
00000120: 4d11 d0bb ab05 a8bd 270f 24bd 5f95 693d
00000130: 1aca c93c 0121 c73c 8384 853d 6ca2 4f3d
00000140: 61cd aebb a3ec 08bd d77a fbbc a429 8dba
00000150: b6ab 5dbc 7c05 003d c42e 873d 8b65 823d
00000160: 1aca cfbc 6d4e b1bd 623a 843c 820f 633d
00000170: 3653 36bc d611 6abd 2c74 823d 65ac 2b3d
00000180: 2196 1a3d 0d76 46bd 73d9 d3bb 681f 033c
00000190: af57 67bd c460 c13d 6126 703d 0034 2dbd
000001a0: 874f b33c 26b5 25bd ae65 6c3c 7884 f2bb
000001b0: 20e2 43bd adc7 c5bb 82ef 133d d584 bcbc
000001c0: 2fbf 393d 3c7e f23c 3e1d 253b 6e1e dcbb
000001d0: 780f a63b 6560 90bd 53ff a2bd 3c6a dc3b
000001e0: 5cea edbd 7981 253c 5a5c d5bb 18c8 83bb
000001f0: d0e8 afbc e83e aa3d 2363 453c 3688 a73d
00000200: ae05 fd3a a779 1d3c 7339 8b3d bddb 0b3d
00000210: daaf eebc 6cf9 6c3c c1eb 063d 524b e83c
00000220: e59a 38bd 7ecb e139 181e 073d 7cf3 813d
00000230: 01a5 a8bc e99e 46bd 5a8e 8fbc 1ca8 e23c
00000240: d361 61bd 2f39 e8bc 8085 733d b7d2 ccbc
00000250: baec b33d e38a 073d 6245 92bd d1ee 9e3d
00000260: 95d3 263c 9e36 abbc 9151 1bbb b481 883d
00000270: 97ec 133d b7f3 a73b 1114 73bd 047d 5ebd
00000280: bcc7 063c 8204 e83c af85 48bc 824f fbbc
00000290: f557 efbd 4d3a 19bd b9d7 fa3b 8fce f53c
000002a0: 56ca d83c fd59 ddbc 7d2c df3c 31ee c03c
000002b0: 7d96 41bd 1d20 36bd 9255 203d 5d74 373b
000002c0: 103a c33b 8114 f4bc fcde 503c fa53 9d3c
000002d0: 947e 883d 943f 0abd f6af 17bd bfa4 21bd
000002e0: 9de4 b73b 5b4a 25bd 1728 4cbc 0cbf 5abc
000002f0: fd55 77bd 2e39 b43d bbdb 943d 9d72 95bc
00000300: 40fd 2ebc f1fc 77bd 38e5 583d 434b 4bbc
00000310: cdc2 983c fc83 02bd 10d9 883d 2dd3 f63c
00000320: 1739 4fbd 8f2d 98bb 615d 193d 81cb 8b3b
00000330: d759 90bd 7bfc 9f3d 1261 b93c c9f2 733c
00000340: 7c6b 853d 930b 3a3d 24e6 83bc f87a cb3c
00000350: ac3f 173d 2ad7 74bd d31b b7bc f78e d73c
00000360: 978f 55bd 924a dabc 7dbb 65bc 0572 863b
00000370: a759 213d 6170 43bc 7963 7b3d eb18 12bd
00000380: bc3d 15bc 4168 6cbd 8acf 343b fd54 a4bc
00000390: 4e4f 183d 061c b03c 3372 103d 3733 47bd
000003a0: 5291 023d 6afa a5bd 2d2a 933d 2241 8a3d
000003b0: 3f52 c2bd 6b13 b0bb 9501 aebc 8c30 7e3c
000003c0: 3480 ab3d 7241 673c 6047 3ebd a674 8839
000003d0: e806 103d 1e07 c0bd a650 1abd 43f7 793b
000003e0: 895a 6e3d 83b0 3b3c bfc0 103d 22d0 22bd
000003f0: ed4e 3a3d 8657 a23b fa37 0bbd 973d cb3d
-0.025485348 -0.037142694 0.01690736 0.008939429 0.046061493 -0.018172754 0.02610657 0.050349325
-0.037184164 -0.027420552 0.054174367 0.05144544 -0.04267273 -0.008796731 -0.17646404 -0.10095675
0.0053944737 0.04113199 -0.077837214 0.00029915787 0.0039202524 -0.03613586 0.08454796 0.0070558623
0.04810276 -0.09697205 -0.08757818 -0.043097742 0.06187428 0.06626584 -0.017890112 0.029874422
0.06833917 -0.027732877 0.030151825 -0.054087974 -0.10282166 0.009489726 -0.039075945 -0.0056746313
-0.014774181 0.052769735 0.024289865 -0.013789935 0.006126274 0.045912147 0.053436857 -0.022606395
0.054301545 0.023323633 -0.016402792 0.05950128 0.004269843 0.011605738 0.015522986 -0.052648094
-0.0046269917 0.0038708802 -0.06001952 -0.00020263059 -0.08991011 0.025768757 0.01966196 -0.019547533
0.015282687 0.013299446 -0.013028427 -0.020068154 -0.015709896 0.08527537 -0.055148974 0.01159545
-0.0063497187 -0.08204206 -0.040053513 0.057027217 0.024632502 0.02430773 0.06519415 0.050692007
-0.0053345417 -0.0334288 -0.030698223 -0.0010769856 -0.013529709 0.03125523 0.06600717 0.06367024
-0.025364924 -0.08657537 0.01614112 0.05543471 -0.0111282375 -0.057145916 0.06369814 0.041912455
0.03774083 -0.048452426 -0.006465131 0.008003093 -0.056480106 0.09442285 0.05863035 -0.04228592
0.021888508 -0.04045596 0.014428539 -0.0074010454 -0.04782307 -0.006035766 0.036117084 -0.023012558
0.045348343 0.029601209 0.0025194432 -0.0067174947 0.005067762 -0.07049636 -0.079588555 0.0067265313
-0.11616966 0.0101016695 -0.0065112533 -0.004021656 -0.021473318 0.0831278 0.012047562 0.08180277
0.0019304061 0.009611524 0.06798067 0.034145106 -0.029136587 0.014463764 0.032939676 0.028356228
-0.045069594 0.00043066958 0.032987684 0.06345269 -0.020586492 -0.048491392 -0.017523933 0.027668051
-0.055024933 -0.02834758 0.059453487 -0.02500282 0.087853864 0.033091437 -0.0714214 0.07760394
0.010182281 -0.020900067 -0.002369974 0.06665364 0.0361143 0.0051254886 -0.05934531 -0.054318443
0.008226331 0.028322462 -0.012238904 -0.03067756 -0.11686698 -0.037409116 0.0076551107 0.030005721
0.026463669 -0.027020449 0.027242893 0.023551079 -0.047262657 -0.04446422 0.039144106 0.0027992942
0.0059578493 -0.029794933 0.012748476 0.019205082 0.06664768 -0.03375204 -0.037033044 -0.039463755
0.0056119696 -0.040354114 -0.01246073 -0.013351213 -0.06038474 0.08799969 0.07268473 -0.018243128
-0.010680497 -0.060543958 0.052952975 -0.0124080805 0.018647576 -0.03186415 0.066820264 0.030129993
-0.050591554 -0.004644103 0.03744257 0.004266203 -0.070483856 0.07811829 0.022629295 0.014889427
0.06514642 0.045421194 -0.01610095 0.02483891 0.036925957 -0.05977551 -0.022352135 0.026313288
-0.05213889 -0.026646886 -0.0140217515 0.0041029477 0.03939214 -0.011928649 0.06137416 -0.035668295
-0.009108957 -0.05771661 0.0027589523 -0.020060057 0.037185006 0.021497738 0.03526516 -0.048632827
0.03187687 -0.08104403 0.07185779 0.06750704 -0.094883434 -0.0053734086 -0.021240989 0.015514504
0.08374062 0.0141147245 -0.046454787 0.0002602685 0.035162836 -0.093763575 -0.03767457 0.0038141764
0.05819181 0.011455658 0.035340067 -0.039749272 0.045485426 0.0049542813 -0.03398893 0.09923857

bias f4 [256]
00000000: 88bc d2bb a462 bc3c 18be 3bbd 7794 9d3d
00000010: bd2e 5b3d 6f5b a9bc 0d5c aebc a241 ae3b
00000020: 113c cc3b 3282 fdbc 9498 1fbd 6287 39bd
00000030: 489f f6bb aeb9 3ebd b69b dcbb b562 ea3c
00000040: 937c 823d 5088 0a3d 4737 533d 973a 51bd
00000050: 313d 67bd d5f3 1b3d 1e0b b43c 463e b5bc
00000060: 8b58 b93c 3845 54bd 096e ecbc 3342 fcbc
00000070: b265 443d 28c0 d63c 658d dfbc 712c 7f3b
00000080: 100c 2dbd 5675 16bc 3c5e 8dbc b43d 7f3c
00000090: 6e05 44ba c7e6 363d 369a 0f3d 4c7e c23b
000000a0: 4dd1 453d fac4 e8bd ddc4 52bd f37e adbb
000000b0: 22ff f0bc 3b76 55bd f5ef 103c 1bd8 f53b
000000c0: 31b7 0d3d 905a a3bc e651 e5bb 91be dcba
000000d0: 48de 01bc 9a81 dfbd bbdc 89bb 40e5 443d
000000e0: ee33 993d e674 303c 60d6 c6bb ba01 2abd
000000f0: 16bc 78bd c997 02bd 4247 0f3c 9576 063d
00000100: a5fc 123c 3be4 663d 241d b23c 5783 30bd
00000110: 7bdb 583d 8869 c23b 94b4 343d d833 193b
00000120: eadc cb3b b350 ea3b 510a 773c fd91 5abd
00000130: 815d 35bc 0e5e 0a3d 9b77 373d 013e 2ebc
00000140: 6797 49bd d556 10bc 442a 1cbd fd0a 56bc
00000150: 71ee 4fbd c514 ddbb 2b98 c03c 9f6c 97bd
00000160: ad51 6fbd 248e c9bc 301a 19bd 7735 633d
00000170: 270a 063d 73a0 9c3c 6d34 05bb 3682 a93c
00000180: d086 b53c 24ce 453b d4a7 6ebd b354 233d
00000190: b820 cbbc 9142 8bbd 67aa 123c 53a4 39bd
000001a0: b218 edbc 5587 8c3d 2dd1 6b3d 5278 a03d
000001b0: 6a10 2a3d 888e 69bd e239 c2bc daf2 39bd
000001c0: 9cb0 f03c 2bb2 edbc 796c 50bd 49a8 8cbc
000001d0: d8e3 1f3d c053 363d c06a 583c 9a6e 893c
000001e0: 9859 b0bc 499b f63c 7341 163c ba04 39ba
000001f0: cd2f 8d3c 7ab4 383d 4505 7dba 930e b43b
00000200: 02ab fd3c 6db6 bc3c 8a09 66bc 7985 e4bc
00000210: 7e2c 8cbc f25a f63c 7d11 26bd d899 52b9
00000220: 1d5f 96bd 5d87 393c fde7 fd3a 0881 d33c
00000230: a94a 453c 0647 1e3d 2b1d 6d3c c354 36bd
00000240: 87fe 3c3b 7cc0 223d 6001 683d ebd7 9f3c
00000250: 89c5 41bc 94b0 73bd 1977 2dbd 34e6 f4bc
00000260: 4123 7f3d 76c1 aa3c 90c5 a3bc b05b ecbb
00000270: e714 bfba abfd 2bbd cf5d d8bd 146a b2bc
00000280: 8281 9bbc 6960 1ebc a0c9 aabb 5799 aeba
00000290: 8c75 b1bc d1bb c4bc 6d21 f6bc a71e a5bc
000002a0: 25fe babc 3d15 543d 2288 113d d921 cc3c
000002b0: 8bae dabc dec4 72bd 9314 edbc 3524 c7bb
000002c0: b938 843b 40c2 68bd 338f 55bd 7bc1 da3c
000002d0: 9870 66bc 7059 053d 859a 72bc af9c 05bd
000002e0: 8994 753c 5aa5 87bc 3510 9cbd c73d 33bd
000002f0: 1d5d 4b3b e3ff fc3a 949d c0bc 6f1f 87ba
00000300: 9c95 f9bb 6d49 9cbc 1a8c 9c3b f134 773c
00000310: cfef 3a3d 499f 38bd 19f9 7b3c b57e afbc
00000320: ae99 43bc a616 bbbc 4a16 c43c 3955 debd
00000330: 3414 2ebd 0e4a dabc 440c 58bc ea2b 7abd
00000340: d380 edbc 8452 64bd b98a 14bd ec1b 333c
00000350: 1d54 cd3c 449a e2bb e5cf 19bd 7685 bebc
00000360: 7d82 a8bc 5e3d 26bd c7cd 25bd c6dc 333c
00000370: 48ac c13b 2703 5ebd f2d3 113d 5338 21bd
00000380: 49d6 3bbd b48c 183d 545d c93c fed1 043d
00000390: 4904 4d3d 482d 9dbc d681 313d 21de 073a
000003a0: 2781 193c 6e55 cc3a a43e 893b 5685 99bc
000003b0: adaf 45bc a21a 74bc 194a d4bb fc5c a8bc
000003c0: 57f3 e9bb c7d2 a13d e1ca 7ebc 83f3 1e3b
000003d0: d3ec 2d3c 5a80 6cbd 5e31 ad3c 0a56 40bd
000003e0: 1806 2bbc b9d8 473d a9cc 893d 4eee f6bb
000003f0: 869d 4cbc 9880 15bd 5f96 00bd 2bdd 513c
-0.006431166 0.022996254 -0.045835584 0.07694333 0.05351137 -0.020673482 -0.021284128 0.0053178826
0.0062327464 -0.030945871 -0.03896387 -0.045295127 -0.007526312 -0.046563797 -0.0067324294 0.02861152
0.06371417 0.033821404 0.05156639 -0.051081266 -0.05645484 0.038074333 0.021977957 -0.02212442
0.022625228 -0.051823825 -0.028861063 -0.030793285 0.047948547 0.026214674 -0.027289102 0.0038936401
-0.04224783 -0.0091832485 -0.017256849 0.015578676 -0.0007477616 0.04465368 0.035059176 0.005935466
0.048295308 -0.11365695 -0.051457275 -0.0052946745 -0.029418532 -0.052114706 0.008846273 0.0075025684
0.034598533 -0.019940645 -0.0069982884 -0.0016841461 -0.007926531 -0.109133914 -0.0042072213 0.048070192
0.07480608 0.010770058 -0.006068036 -0.041505553 -0.060726248 -0.031883035 0.0087450165 0.032827932
0.008971368 0.05637 0.021742411 -0.043094005 0.052943688 0.0059329905 0.044117525 0.0023376849
0.0062214034 0.0071507334 0.015078143 -0.05336188 -0.011069656 0.033781104 0.0447918 -0.0106349
-0.049216654 -0.008809765 -0.038126245 -0.013064143 -0.050764505 -0.0067468607 0.02351006 -0.07393765
-0.0584275 -0.02460391 -0.03737849 0.05547091 0.032724526 0.019119477 -0.0020325438 0.020691972
0.02215901 0.0030182684 -0.058265522 0.039875697 -0.024795875 -0.06799806 0.00895176 -0.045322727
-0.02894244 0.0686175 0.057572532 0.07835449 0.04151956 -0.057020694 -0.023709241 -0.045397617
0.029381089 -0.029015621 -0.050884698 -0.017170088 0.039035648 0.044513464 0.013209045 0.016776372
-0.021527097 0.030103343 0.009170878 -0.0007057894 0.017234707 0.04509399 -0.00096519693 0.0054949014
0.030965332 0.023036206 -0.01404036 -0.027895676 -0.01711106 0.030072663 -0.040544022 -0.00020084472
-0.0734236 0.011323777 0.0019371506 0.025818363 0.012041726 0.038641952 0.014472286 -0.04451443
0.0028838234 0.03973435 0.056641936 0.019512137 -0.011826881 -0.05949457 -0.04234991 -0.029894926
0.06228948 0.020844202 -0.019991666 -0.0072130784 -0.0014578373 -0.041989964 -0.105647676 -0.021779098
-0.018982653 -0.009666541 -0.005212024 -0.0013320845 -0.021662496 -0.02401534 -0.030045236 -0.020156218
-0.022826264 0.051778067 0.035530217 0.024918484 -0.026694557 -0.05926978 -0.028940475 -0.0060773143
0.004035082 -0.056825876 -0.05213852 0.026703587 -0.01406493 0.032555997 -0.014807348 -0.03262013
0.014989027 -0.016558338 -0.07620279 -0.043760087 0.0031030842 0.0019302334 -0.02351264 -0.001030905
-0.007616712 -0.01907798 0.0047774436 0.015088306 0.045638856 -0.04507378 0.015379214 -0.021422723
-0.011938496 -0.022837948 0.02393641 -0.10856099 -0.042499736 -0.02664664 -0.013186518 -0.061077036
-0.028992092 -0.055742756 -0.03626511 0.01093195 0.025064522 -0.0069153626 -0.03755178 -0.023256999
-0.020570034 -0.040585868 -0.040479448 0.010977929 0.00591043 -0.054202225 0.035602517 -0.039360356
-0.045858655 0.03724356 0.024580635 0.032426827 0.050052915 -0.01918663 0.04333671 0.0005182941
0.009369171 0.0015589425 0.0041883755 -0.018740337 -0.01206581 -0.014898928 -0.0064785597 -0.02055215
-0.007139604 0.07901531 -0.0155513 0.002425403 0.010615545 -0.057739593 0.021141704 -0.046957053
-0.010438465 0.048790667 0.06728489 -0.0075357324 -0.012488728 -0.03649959 -0.031393405 0.012809078

weight f4 [128, 256]
00000000: e3a1 f0bb 3f52 bbbb 0975 863d 0c23 133d
00000010: fabd 74bd e5a6 db3b 9cbb 1a3d 771c 1cbc
00000020: 6073 54bd c75a 0cbc bf4a 3e3c fec2 d03d
00000030: a98e 013c ad4e d4bd a9ea e93c 982a cebc
00000040: a85a 703c d427 583d 6df3 6d3d 9703 433c
00000050: f6ac 77bb 7167 a13d 0464 27bc 5a6f bf3b
00000060: 0d2d 10bd ea20 b3bd 0fc9 90bd 74de bd3c
00000070: 7096 643d 7a47 c8bb 4abc 03bd c2a0 1a3d
00000080: 3fa3 5fbd 523b 823c 9025 3c3d 67d6 8e3d
00000090: 02e6 a3ba 19ca b33b 3958 6e3d 8598 993c
000000a0: 1510 98bd dfc7 6bbd 6c27 b53d 85ab 4a3c
000000b0: d491 693c 5eb9 cebc 56b3 3fbc cf67 053d
000000c0: 25d5 bc3a b69a d03c b9fe 6c3c ddf7 85bc
000000d0: ac9f 393d f063 8cbd da9b 04bc 0ab2 8ebb
000000e0: 6f5f a93d 04fb 8b3b 6575 7bbb d6b5 a03d
000000f0: bfc0 263d 2abe 253c 2e0e 9e3d 4052 d53c
00000100: 014d d9bc 29a2 80bd 5142 e0bc 1780 593d
00000110: c275 5fbd 375b b53d e1ae 3f3d cb51 263d
00000120: 40ab d9bc 8a41 2f3d f323 b8bc efe7 d23d
00000130: 9372 553d 116e efbc e790 663b d516 21bd
00000140: a29b 0cbd ce8e 3c3c b3de 8fba 5b49 37bd
00000150: c663 b13c eaee dbbc e8f3 333b 9c99 123c
00000160: 2b0d 5f3c e940 eabc e38c b0bc f7a0 093d
00000170: 1b80 b2bd e894 3cbd e714 bbbc 10ed 8e3d
00000180: cd07 253d 4557 81bd 4025 bebd aee9 673d
00000190: 3a81 98bd d1a1 9c3d 6172 a03c 064f bcbc
000001a0: 425b 163d 1673 373d 2428 e6bb d155 4e3d
000001b0: 5e92 1f3d 88e2 b23d 584f 8cbc 6419 f9bc
000001c0: 51c3 5b3c 08d4 f83c 7c94 c43a 3329 c3bd
000001d0: 0e0b 63bc 26df 323d 1f24 ab3c 579b 213d
000001e0: bfe5 ebbd 8ba8 a03d ed06 2dbd 4a86 77bd
000001f0: adc2 b8bb f407 9dbd 6f87 4b38 8a62 bcbd
00000200: b9cc 22bc fbe4 89bc 5521 31bb e687 893d
00000210: 8178 3c3d e7e7 223d b9ef 9abd 651d 173b
00000220: 9ec7 393d daa9 643d 4292 8abd 3c3a acbd
00000230: c19c fabc e350 02bd ee7d 353d 4b3f 22bd
00000240: 5e44 053d 1634 133d fb0f 233c bd24 b2bc
00000250: 77dd 503d 7e54 3cbd 69b0 523d 23c4 dabc
00000260: c0ba 933d 197d a13d a13a fdbc 0520 433d
00000270: b0bc 523b 5aca a3bd e79e 753c 99d1 043d
00000280: 2fcb 63bd 09d2 df3c f44a a33c a90f 1cbd
00000290: c9d8 a7bc 3b9b 633d 5b9f b1bd 284c d73d
000002a0: 9d55 0bbd 26c1 16bd 3503 bb3c 51d9 9d3c
000002b0: 1f63 6e3d 6887 bd3d b5cd 41bc 1fb3 d8bc
000002c0: 1c8c 29bc d257 5bbc b89e bebd 7b24 293d
000002d0: 76be 89bd bafc 1b3d 4255 aebc 3272 3bbd
000002e0: 9d16 1abd 6128 90bd 41af bb3c 99c2 78bc
000002f0: 82f7 7a3d ae4e 42bd 5656 8fbd 54c1 933d
00000300: 47a1 eb3c ae27 61bd cc75 75bb f02e 62bb
00000310: 4923 a6bd 0888 93bc 2aa8 8fbd b00f 103c
00000320: b157 583d c0aa 643d 04e2 783d bca8 c1bd
00000330: c394 8bbc c2c2 1f3d 975d 063d 0fa0 bd3c
00000340: 67ff 8b3c 189c 5abc 953c 9cbd 13cd d2bd
00000350: 4cff 2f3d 785e f13b 1925 983d cdf7 f83c
00000360: 061d 683d cf45 ab3d d043 8bbc 5112 7b3d
00000370: 838a 7cbd 9d03 7cbd 6cbb a63d 529d 80bc
00000380: a897 aeb9 6a57 583d 7247 033d 35c8 2d3d
00000390: 665f 1ebd 959f 85bd 9f31 78bc 9a9e 07bd
000003a0: 2894 b2bd 3684 0a3d b032 273d 3cfb df3c
000003b0: f54c 2d3d 27bd b23d 40e8 4cbd bbbf 89bd
000003c0: b572 7bbb 010c afbc 64c3 393c 7522 173c
000003d0: e171 e03d eb22 403d 12af 52bd 5480 ffbc
000003e0: 9c99 cbbd e56e 68bd 9d70 1fbd d34d 4d3d
000003f0: b478 593b 43d4 0fbd d1fa 78bd 79a5 aebd
-0.007343517 -0.0057165916 0.065652914 0.035922095 -0.05975149 0.006703245 0.037776574 -0.009528271
-0.051867843 -0.008566565 0.011614501 0.10193442 0.007907548 -0.10366569 0.028554277 -0.025166795
0.014670052 0.052772358 0.058093477 0.011902711 -0.0037792302 0.07881058 -0.010216717 0.0058421316
-0.035199214 -0.08746512 -0.07069599 0.023177363 0.05580753 -0.0061120363 -0.03216199 0.037750967
-0.054599043 0.015897427 0.04593426 0.06974488 -0.0012504461 0.0054867384 0.058189604 0.018749485
-0.074249424 -0.05756366 0.0884541 0.012369995 0.01425596 -0.025234874 -0.011700472 0.032569703
0.0014406784 0.025464397 0.0144650275 -0.016353542 0.04531829 -0.06854999 -0.0080937985 -0.00435472
0.08270156 0.0042718668 -0.0038369533 0.078471825 0.04071116 0.010116139 0.07717548 0.026040196
-0.026525976 -0.062809296 -0.027375372 0.05310067 -0.054555662 0.088552885 0.046797637 0.040605348
-0.026570916 0.042787112 -0.02247808 0.10298144 0.05211122 -0.029227288 0.0035181583 -0.039328415
-0.03432811 0.011508657 -0.0010976404 -0.04474769 0.021654021 -0.026847322 0.0027458612 0.008947756
0.013613979 -0.028595405 -0.021551555 0.033600774 -0.087158404 -0.046040446 -0.022837115 0.0697881
0.040290643 -0.063154735 -0.092844486 0.05661934 -0.07446523 0.076480515 0.01958579 -0.0229869
0.036708124 0.04478749 -0.007023828 0.05037481 0.038957946 0.08734614 -0.017127678 -0.030407615
0.013413266 0.030374542 0.0014997865 -0.095293425 -0.013857616 0.043669842 0.020891247 0.039454784
-0.1151843 0.07844647 -0.042242933 -0.060430802 -0.0056384415 -0.076675326 4.8525104e-05 -0.09198482
-0.009936505 -0.01683282 -0.0027027924 0.06715374 0.04601336 0.03977194 -0.07565255 0.0023058292
0.045356385 0.055826046 -0.06766178 -0.08409545 -0.030592324 -0.03181542 0.04430955 -0.039611142
0.032535903 0.035938345 0.0099525405 -0.021746034 0.050992455 -0.045979016 0.05143777 -0.026704853
0.07213354 0.078851886 -0.030911746 0.047637958 0.0032155924 -0.0799758 0.014991499 0.03242645
-0.055613693 0.027321832 0.019933201 -0.038100872 -0.020489113 0.05556796 -0.08672973 0.105125725
-0.034017194 -0.036805294 0.022828678 0.019268664 0.058199998 0.09254342 -0.01182883 -0.0264526
-0.010348346 -0.013387637 -0.09307617 0.041294556 -0.06725781 0.038082816 -0.021280888 -0.045763202
-0.037619222 -0.07038952 0.022910716 -0.015183114 0.061271198 -0.047438316 -0.06998889 0.07214609
0.028763426 -0.054969482 -0.0037454246 -0.003451284 -0.08112199 -0.0180092 -0.070144966 0.008792803
0.052818004 0.055826902 0.06076242 -0.09456012 -0.017038709 0.039004095 0.032804098 0.023147611
0.017089559 -0.01334288 -0.076287426 -0.10293021 0.04296808 0.007365998 0.07428951 0.030391598
0.056668304 0.08362924 -0.017000109 0.061296765 -0.061655533 -0.061526883 0.08141217 -0.015700016
-0.0003330086 0.05281774 0.032050557 0.04242726 -0.038665198 -0.065245785 -0.015148549 -0.03311024
-0.08719665 0.033817492 0.040819824 0.027341478 0.04230972 0.08727484 -0.05002618 -0.06726023
-0.0038367931 -0.021368029 0.011338089 0.009224524 0.10959221 0.0469083 -0.05143649 -0.031189121
-0.09941408 -0.056746382 -0.038925756 0.050123047 0.0033183517 -0.035114538 -0.060786072 -0.08527655

bias f4 [128]
00000000: 8208 35bc 48bc 41bd f6db 68bd ea0b 303d
00000010: dcf4 04bd dc4a 83bd a4ad ea3d 21ec 5cbb
00000020: 1a32 2dbd d82a 85bc 71da c43d 7fca 5b3c
00000030: 3cb4 68bd 8254 9d3c 1012 06bd 8d65 87bc
00000040: a031 afbc 501f 36bd 6a9a 553d 256f c3bd
00000050: 35f4 f13c 0b6c 9f3d 8ea7 e136 a2aa a0bd
00000060: 4019 28bd 0b12 aebd 47d4 96bc 0d2a 85bd
00000070: ddae 56bc 77d5 1d3d bae9 c93c 3553 58bd
00000080: ba06 b7bd e6a6 f23c effd 223d d95b 8dbc
00000090: 7a8c 8b3c 6c38 483d 0cd9 b2bd e77d 87bd
000000a0: dd90 29bd 0496 86bd b741 a2bc 1be6 b4bd
000000b0: 1032 4abd eb30 92ba 4370 2f3c 2f33 213d
000000c0: e887 9f3c 28ce 52bd 6e30 dbbd b236 b63a
000000d0: 21ac 1f3d 6178 73bd 6556 3cbd c008 843c
000000e0: f154 b8bd a257 5cbd b770 02bd cf97 72bd
000000f0: fd95 d7bb 4d24 26bb 52d8 17bc d092 4e3c
00000100: 9bcc 303d 3eba 9a3a ec26 94bd ab0c 3039
00000110: 5b85 8c3d bf34 acbc 008c 97ba 3c1b 99bd
00000120: 81bb ad3d bfbd c93c 29eb 12bc 26b9 cdbd
00000130: e9b2 6cbc 7ca1 283d fd65 d6bd 37a3 223d
00000140: a3ab 2dbc eb0a f5bc b176 3a3d 2b0b 713c
00000150: 7264 a73d 1a5d bfbd fa2d 3b3d 91ea 59bd
00000160: 21c9 a8bd 8e16 dc3d 495e f73c 8600 913d
00000170: f419 ec3c e3ac ac3c e4de a73c f204 9b3d
00000180: bb83 3ebd 5dd9 98bd a4ee bb3b dc56 bcbd
00000190: 6218 513d a5f0 a03d 1787 dabc 3f4f 893c
000001a0: 5ffb e7bb f625 3bbd 000f 163d e6aa 9ebd
000001b0: ff7a c73b 665b 81bc 5b95 1dbd ea5f 67bd
000001c0: 1814 0fbd b453 09bd bd52 30bd 1d65 09bd
000001d0: 809a 8e3c 580d f5bc 1928 113d 97d4 283d
000001e0: 2564 8ebd 7c6e 763d b419 713d 11d6 2dbd
000001f0: ce2c ccbd a5f8 2abd 225e 013c 801d cebc
-0.011049392 -0.0472987 -0.056850396 0.042980112 -0.03246008 -0.06410763 0.114589006 -0.003371008
-0.04228411 -0.016255781 0.09611977 0.013414978 -0.05681251 0.019205336 -0.03273207 -0.016527915
-0.021385968 -0.044463456 0.052149214 -0.095426835 0.029535392 0.077842794 6.7250285e-06 -0.078450456
-0.041039705 -0.08499535 -0.018411769 -0.06502161 -0.013103214 0.038533654 0.024647582 -0.052813727
-0.0893683 0.029620599 0.03979295 -0.01725571 0.017034758 0.048881933 -0.08732805 -0.06615811
-0.041397918 -0.06571582 -0.019806726 -0.08832952 -0.04936415 -0.0011153495 0.010707918 0.039355453
0.019473985 -0.051466137 -0.107025966 0.0013901799 0.038982514 -0.059440974 -0.04598083 0.016117454
-0.09000576 -0.05379451 -0.031845775 -0.059226807 -0.0065791593 -0.0025351227 -0.009267883 0.012608245
0.043163877 0.0011804772 -0.07233986 0.00016789387 0.06861373 -0.021021245 -0.0011562109 -0.07475898
0.08483029 0.02462661 -0.008967199 -0.1004508 -0.014446952 0.04116963 -0.104686715 0.039706435
-0.010600003 -0.029912433 0.04552335 0.014712135 0.08173455 -0.093439296 0.045698144 -0.053202216
-0.08241487 0.107464895 0.030196326 0.07080178 0.02882097 0.021078533 0.020492025 0.075693026
-0.046512347 -0.07463334 0.0057352353 -0.091962546 0.051048644 0.07858399 -0.026675744 0.01676142
-0.0070795263 -0.0456905 0.0366354 -0.0774744 0.0060876603 -0.015790652 -0.038472515 -0.056487955
-0.034931272 -0.03352709 -0.043047655 -0.033543695 0.017407656 -0.02991359 0.03543863 0.041218366
-0.06952695 0.06016396 0.058862403 -0.042440478 -0.09969483 -0.041741032 0.007895978 -0.025160551

weight f4 [12, 128]
00000000: d182 853b 85da 9ebd a48e 67bb eb67 b1bc
00000010: cf20 633c 6f6d ef3c ed56 193d dff1 de3b
00000020: 70e5 bcbc 8e75 073d 85d6 573d 200f 313d
00000030: 50d8 15bd af85 453d e506 d8bc 4436 29bd
00000040: b1bf 50bc 1e94 f3bd 6ee4 88bc 9ae4 42bd
00000050: 758f 143d a4a3 d93c 4fd2 a43d 1792 e63a
00000060: 0e6b 193d 9c03 6fbc e1ed f23c 388e 7dbc
00000070: 7afd b3bc 6abb 383d 57ed ca3c a7c3 26ba
00000080: e961 a43c d6f0 78bc 7740 b9bc 24d9 8fbd
00000090: d2f8 5bbd 4c86 61bd 36ab ec3c fca0 40bd
000000a0: 1297 0cbd 6c95 2e3c 2468 bb3c 0181 5dbd
000000b0: 8112 29bd 1a11 243d fe61 4d3d 2d70 613d
000000c0: 44a9 bdbd 18f6 f33b 986f 363d 6801 84bd
000000d0: dfb4 273c 07ab 6fbc 818f 7d3d c177 4a3c
000000e0: 72fc 1f3d 1a34 dfbc cb76 983b 5ea3 b33c
000000f0: 5334 4bbd a70e dcbc 46b8 90bd 55ad db3c
00000100: c8bf f23c 6875 e5bb 3f74 213d 33e9 db3d
00000110: 0d5e 823c cb7a c7bc d2d2 6dbb ea00 90bd
00000120: 075a bd3d 66c1 fe3c f5a9 1b3c d4ba 83bd
00000130: 33da dfbc 6d93 003d 3890 58bc 64e8 123d
00000140: 5722 2d3d e700 97bc 93cc fd3c 65be 4ebc
00000150: e7b9 1c3d 8d4f babd 2d8e 01bd 8d94 433c
00000160: 8249 f7bb 8d79 453b 18f4 9a3b 6a57 a23d
00000170: 561b a73b 403d 8c3d 2389 3d3d 96bd 703d
00000180: 6523 c0bd fc3a a5bd f460 84bc 8b7c 6d3b
00000190: ddac fd3c 9ad4 823d ce7b 1a3c d078 663c
000001a0: 1f91 2dbd 0c3c 8ebc 610a 913d e6cb cabc
000001b0: 9124 783d f29f 0b3d e93f 8a3c c284 ceb7
000001c0: a297 33bd a2e5 083d a6b0 cabd b527 8e3c
000001d0: 72b6 94bd bac5 663d 1d30 bebb ded6 003d
000001e0: 7318 11bd faf5 033d 8704 d23d 2da4 b0bb
000001f0: 6659 ecbd 6be4 7fbd 5efd 3b3d 8c78 afbc
00000200: 9b5b 013d aee6 b13c 8b1a c63c 1aed 76bd
00000210: 26f9 383d ba88 6fbc a759 1fbc f780 1dbd
00000220: 4138 b7bd 5b90 8fbd 81ca 0a3d cdea 783d
00000230: 0a83 aa3d 00bc 93bc c562 0ebd 43d8 1fbd
00000240: 172f 18bd b247 b73d 0c3e 47bd 4edd a4bb
00000250: 9eeb 763c 4e8b 51bd e079 25bd 2cf5 dd3b
00000260: c4ea 343d e299 c0bc 848b 1b3d 573f 2c3d
00000270: c630 ff3c 4251 bd3d 709c e33c d571 023d
00000280: 52e8 483d 5be5 a83d 5dd3 193d 25bc 9bbc
00000290: 3132 d3bc 9ee5 efbc d2eb de3d 1dab 453d
000002a0: 3c56 0ebd dd27 1c3d 35ea 09bd 2ce3 f03c
000002b0: a162 fe3c 72a5 f43b 8d9e 46bd f66b 4e3a
000002c0: 06b4 febd cb52 ce3d 08fc e13c be63 88bd
000002d0: 834e 20bc e227 973d 0e78 113b 280c 8ebc
000002e0: 348e aa3d 1858 09bd 341e d53c c190 da3a
000002f0: 0183 cabc 31cf 2c3d 6090 11bd e26a eabc
00000300: 63f3 16bd ffb7 2a3a 5282 323d d4a5 393d
00000310: 921a 67bd 5539 d7bb eb27 b7bd 3497 9fbc
00000320: 58f7 79bd 1111 35bc a8f9 3b3d 2496 543d
00000330: 1cd9 52bd 9f88 073d 6412 913d ddd6 573d
00000340: d495 9ebc db9a 393d c63d 5c3d e84c 2d3d
00000350: a278 b1bc 0f20 4dbc 428a 87bd e3e5 e13c
00000360: db29 b03a ff44 36bd 9336 80bd 5f3d a2bd
00000370: 6fa0 ef3c 3c8f 53bd f874 853d 1134 4fbd
00000380: ff99 afbc 9a17 8a3d 19d9 8a3d 7706 363d
00000390: c374 203d e24f 08bd 176b 043d 25b8 cb3c
000003a0: b543 8ebc a54f a6bc cdff bebc 231f 233d
000003b0: eb2e bb3c fbec 8fbc 547a 9c3d 2b7c c8bc
000003c0: f428 383d c9c5 18bc 66db 1e3c 26ed 2d3d
000003d0: 081f 9c3c 3ef7 d03b 4a1c 0cbd 59f4 d5b8
000003e0: 067a 913d b52b 2fbd 4ace 37bd df7b be3d
000003f0: 24ea f33c 8951 0abd d51c 08bd 0101 53bc
0.0040744324 -0.07756523 -0.0035332823 -0.021655997 0.013862803 0.029226987 0.037436415 0.0068037356
-0.023058623 0.033071093 0.052694816 0.043227315 -0.036583245 0.048223194 -0.026370475 -0.041311517
-0.012741015 -0.118934855 -0.016710486 -0.047581293 0.036269624 0.026567288 0.08047926 0.0017591146
0.03745561 -0.014588263 0.029654445 -0.015475802 -0.021971453 0.045100607 0.024771376 -0.0006361552
0.020066218 -0.0151941385 -0.022613747 -0.07023838 -0.05370409 -0.055059716 0.028890233 -0.047028527
-0.03432376 0.010655742 0.022876807 -0.054078106 -0.041277412 0.04005537 0.05014228 0.05503862
-0.092608005 0.007445108 0.044540018 -0.06445581 0.010235994 -0.014628178 0.061904434 0.012357653
0.03905911 -0.027246524 0.004652833 0.021928485 -0.049610447 -0.026862456 -0.07066397 0.02681605
0.029632464 -0.0070025213 0.0394175 0.107378386 0.015913988 -0.024350544 -0.0036288989 -0.07031424
0.09245687 0.031098079 0.00950097 -0.06432119 -0.027325725 0.031390596 -0.013217978 0.035866156
0.042269077 -0.018433047 0.030981338 -0.012618636 0.038263228 -0.09097204 -0.03162973 0.011937273
-0.0075466046 0.0030132264 0.0047288053 0.07926829 0.0050996942 0.0684762 0.046273362 0.058774553
-0.09381751 -0.08067891 -0.016159512 0.0036237563 0.030966217 0.06388207 0.009428931 0.01406689
-0.042374726 -0.017362617 0.07082058 -0.02475543 0.060581747 0.034088083 0.016876178 -2.4618934e-05
-0.04384578 0.03342212 -0.09896974 0.017352918 -0.07261361 0.05634091 -0.0058040754 0.031454913
-0.035423707 0.032217003 0.1025477 -0.005390665 -0.11540489 -0.062473696 0.045895927 -0.021419786
0.031581502 0.021716442 0.024182579 -0.06028471 0.04515948 -0.0146200005 -0.009725965 -0.03845307
-0.089462765 -0.070099555 0.03388453 0.0607708 0.08325775 -0.018033981 -0.034762163 -0.039024603
-0.037154283 0.08949222 -0.048643157 -0.0050312644 0.015070824 -0.051158242 -0.040399432 0.0067736115
0.044169202 -0.023510877 0.03797485 0.042052593 0.031151187 0.09244014 0.027784556 0.03184684
0.049049683 0.08246871 0.037555087 -0.019010613 -0.025780769 -0.029284295 0.10884823 0.04825889
-0.03475021 0.038123954 -0.033670623 0.029405199 0.03105289 0.0074660117 -0.04849105 0.0007874364
-0.124366805 0.10074385 0.027585998 -0.06659649 -0.009784344 0.07380654 0.0022196802 -0.01733978
0.08327904 -0.03353128 0.026015379 0.001667522 -0.02472067 0.04218978 -0.035538077 -0.028615419
-0.036853205 0.0006512403 0.043581314 0.04532416 -0.056421824 -0.006568114 -0.089431606 -0.019481279
-0.0610269 -0.011051432 0.045892388 0.051900998 -0.051476583 0.033089276 0.07083586 0.052695144
-0.019358553 0.045313697 0.05376985 0.04230967 -0.021663968 -0.01251985 -0.066181675 0.027575439
0.0013440208 -0.044499394 -0.06260409 -0.07921862 0.029251305 -0.05165027 0.06516451 -0.050586764
-0.021435736 0.06742783 0.06779689 0.04443976 0.039173853 -0.033279307 0.03232869 0.02486808
-0.01736627 -0.02030165 -0.023315335 0.039824616 0.02284952 -0.017569056 0.0764052 -0.02447327
0.04496093 -0.009324499 0.009695863 0.04246249 0.019057766 0.00637713 -0.034206666 -0.00010202145
0.07103352 -0.04276629 -0.044874467 0.0930097 0.029774733 -0.033769164 -0.03323062 -0.012878657

bias f4 [12]
00000000: cbc5 953d 11c6 ddbd 512d 5abd 814b 7fbd
00000010: dce3 dc3d 28ef 413d 4c65 5d3d 6821 1abd
00000020: 6dbf 12bc cb0a 3b3d a649 7cbc 564e d1bd
0.07313117 -0.10828794 -0.053265873 -0.062327866 0.10785648 0.047347218 0.054051682 -0.037629515
-0.008956772 0.04566459 -0.0153984185 -0.102200195
