src/rl_sar/models/tron1_isaacgym/policy_1.pt (torch, 728648 bytes, 8 tensors)

weight f4 [512, 27]
000000 6c 35 03 be a7 4f 01 3e 8e 8a 38 3e 49 53 cf 3c
       -0.12813348 0.12628041 0.18021604 0.025308268
000010 7f 45 7b 3e 65 e9 97 3e c7 5d 66 3c 61 32 94 3e
       0.2453823 0.29670253 0.014060444 0.28944686
000020 89 29 87 be db c8 c6 3d dd c7 15 3e 44 b6 8a be
       -0.26398876 0.09706279 0.14627023 -0.27092183
000030 45 ec 24 bf cf bb 91 3e 2f e1 72 be 32 0c 1a 3f
       -0.6442302 0.284636 -0.23718713 0.6017486
000040 fb 0a a9 bb 1e 5c 5b 3d a5 4a ac bd 38 32 70 3b
       -0.0051587797 0.053554647 -0.08412675 0.0036651026
000050 8d 7f e3 bc 8d ef 60 bd 60 82 9b bd ce 58 59 3d
       -0.027770782 -0.054915953 -0.075932264 0.053063206
000060 fd 57 da 3b 9a 28 c1 bd 6c 58 a0 be 72 f7 5b bc
       0.006663321 -0.09431572 -0.3131746 -0.013425695
000070 89 91 e0 3d ac 9a 64 3c 88 00 2a 3f fc e9 6b be
       0.10965259 0.013952892 0.6640706 -0.23038477
000080 d5 1e 75 3d c6 80 8d be df 4d f0 3d df e8 22 be
       0.059843857 -0.2763731 0.11733603 -0.15909146
000090 63 a0 8f 3d 82 3c 99 3e a8 0d 8d 3e 2c 0b de bd
       0.07013013 0.29928976 0.2754948 -0.108419746
0000a0 60 5b c3 3e 4d c7 69 be 8e 2a 66 be 02 da 0c 3f
       0.3815565 -0.22829933 -0.22477171 0.55020154
0000b0 f3 73 28 3f 69 8b 22 bd 85 cd 49 3d 4b 33 08 3e
       0.65801924 -0.039683733 0.049268264 0.13300817
0000c0 b2 9f 9f bc 96 fe 25 bd 2d fa 0f 3e b3 a6 03 bd
       -0.019485328 -0.040525995 0.14060278 -0.0321414
0000d0 16 d4 03 3d c1 58 7d be 14 0e 0f be 4a 0c 67 3d
       0.032184683 -0.24740888 -0.13970214 0.056408204
0000e0 3e 4a ba 3d 32 b1 6b be ec 2c 1f 3e a7 8a 37 be
       0.09096192 -0.23016813 0.1554448 -0.17923985
0000f0 ed 93 bf 3e 46 de 01 3f 6e a7 6a 3c c7 a6 ac bd
       0.37417546 0.5072979 0.014322145 -0.08430248
000100 4c 47 5c 3e bf dd 4a 3c fd 65 8d bd 28 21 a0 3e
       0.21511573 0.01238197 -0.06904218 0.31275296
000110 e0 d9 7e bd 3e 2c 3f bd df 9b 05 be 3e 5a ad be
       -0.0622195 -0.046673052 -0.13047741 -0.33857912
000120 b3 3a 93 ba 26 41 48 bd 30 4d 1b bd f6 12 80 bd
       -0.0011232704 -0.048890255 -0.03791541 -0.062536165
000130 2c 1d b9 3c 97 c0 28 bd e5 41 0c 3e d5 47 00 3e
       0.022596918 -0.041199293 0.13697012 0.12527402
000140 3b ca ea bd d6 d0 7e bd ba a7 cf bc c4 ea 26 3d
       -0.11464354 -0.06221088 -0.025348533 0.040751234
000150 b9 b2 28 bf b5 1a 79 be 3a b0 3f bd 56 b1 98 3d
       -0.6589771 -0.24326594 -0.046798922 0.07455699
000160 7e 17 f2 be 68 08 99 3d bc 47 6c 3e c6 02 10 be
       -0.47283548 0.074723065 0.2307424 -0.14063558
000170 86 39 bf bb a2 44 31 bf ae 10 5a 3d b2 e6 8f 3e
       -0.0058357147 -0.6924535 0.053238563 0.28105694
000180 ef 59 e8 3e 94 78 87 3e ae ab 7f 3e 15 37 af bc
       0.45381114 0.2645918 0.24967834 -0.02138857
000190 ae 65 2e bd bc 07 f4 bc b3 c5 9f bc 20 92 b2 bd
       -0.042577438 -0.029788844 -0.01950345 -0.087192774
0001a0 9f e8 8d bd 3b 2c 04 bc ee 27 78 bd fd a7 9e 3d
       -0.069291346 -0.008067186 -0.060584955 0.07746885
0001b0 4e ea 8b 3d 53 01 05 3e b1 8c 21 bd 4f 00 88 3e
       0.068317994 0.12988786 -0.039440814 0.26562735
0001c0 bc 73 f7 3e fb 86 75 3d b4 7c 0c be e9 7f 1e 3f
       0.48330486 0.05994318 -0.13719445 0.61913925
0001d0 ba cf 7e be 57 24 88 be a7 23 f1 3e d2 fd 5c 3e
       -0.24883929 -0.26590225 0.47097513 0.215812
0001e0 00 09 81 3c 5f 19 25 3e de 21 34 3e 2b 56 93 3e
       0.015751362 0.1612296 0.17591044 0.28776678
0001f0 2c 7d b3 bd 4f 32 40 3b 61 2e ef bc 7e 6b 89 bd
       -0.08764109 0.0029326861 -0.02919692 -0.06709956
000200 d5 c2 15 3d fb 9b af 3c 10 14 d1 3c 7e f2 92 bd
       0.03656276 0.021436682 0.025522262 -0.07175158
000210 58 d9 f0 ba 86 a8 37 bb e0 f4 98 3e 02 c4 e5 3d
       -0.001837532 -0.0028024032 0.29874325 0.11219026
000220 14 19 4a 3e ea e3 54 3e ab 44 41 be 10 29 0b bf
       0.19736129 0.20790067 -0.18873851 -0.5435953
000230 d2 61 04 be 1e b7 0c 3d 21 28 ea 3c 66 c5 93 3e
       -0.1292794 0.03435432 0.028583588 0.2886154
000240 6d 55 1b 3f 96 48 aa 3e fd dc 29 be 36 7a fb 3e
       0.60677224 0.33258504 -0.16588207 0.49116677
000250 3f cd 0a be e5 a0 ef bd 53 8b a3 3e b9 c2 e9 be
       -0.13554858 -0.1170061 0.31942233 -0.45656374
000260 b3 01 14 3d 1a 5c 79 bc 48 47 a8 bd a6 6d e8 3c
       0.036134433 -0.015219713 -0.08216721 0.028372597
000270 69 b5 26 3c 58 28 de bb 82 0f 4c bd 13 1e 10 bd
       0.0101750875 -0.0067797117 -0.049819477 -0.03518493
000280 c0 2b b6 3d 8e f7 cf be 71 4e 55 be 96 a1 89 be
       0.088950634 -0.40618557 -0.20830704 -0.26881093
000290 85 80 86 be e5 e2 e5 be a5 87 1d 3f f3 6a b2 bd
       -0.26269928 -0.4489967 0.615351 -0.08711805
0002a0 28 fc b2 3d 17 c7 97 be 19 cd a8 3e bd ac ad 3d
       0.08739501 -0.2964408 0.32968977 0.08480213
0002b0 4f f9 83 bd 84 29 05 3d 86 53 35 be 3b 04 02 bf
       -0.06444036 0.032510296 -0.17707643 -0.50787705
0002c0 1a 47 83 3e 37 e5 32 bf 31 d9 b3 3d 25 e9 af 3d
       0.25640184 -0.69881004 0.0878166 0.08589391
0002d0 43 4f 44 bd 42 e8 3e be 61 22 2c be 9b ed 16 bd
       -0.047927152 -0.18643287 -0.1680999 -0.036847692
0002e0 90 6f dc 3c 8e 03 ea 3c 5e cf 84 bd 2f 49 3b be
       0.026908666 0.028566148 -0.06484865 -0.18289636
0002f0 c1 e1 92 bd 7d 68 5f 3d 10 76 54 3e c5 44 9e 3e
       -0.071719654 0.054543007 0.20748162 0.30911842
000300 94 91 4f be fd 19 0d bf 79 2a 64 3e 02 f6 1e 3e
       -0.20270377 -0.5511778 0.22281827 0.15523532
000310 2a 13 4e be 81 8f 01 3f 49 fd d4 bd fd fc 2b bd
       -0.20124498 0.50609595 -0.10399873 -0.041989315
000320 99 c8 81 be 29 e1 b0 be d2 1b cb be c9 29 22 3e
       -0.25348356 -0.34546784 -0.39669663 0.15836252
000330 fa 16 15 3f 78 3b 96 be 8d 08 1e 3d 72 d8 8a 3d
       0.58238184 -0.29342246 0.038582373 0.06779565
000340 8d 9f 8a bd 7b 3f e2 bd 42 d6 ba 3c d9 cd 04 3e
       -0.06768713 -0.11047264 0.022807244 0.1296915
000350 b6 49 97 3d 79 36 81 3d c5 f8 b7 bd 61 34 63 be
       0.07387106 0.06309218 -0.08982996 -0.2218795
000360 3e d0 1b bd fa c1 42 3e 5d 30 88 be 7c df c6 be
       -0.038040392 0.19019309 -0.26599398 -0.3884238
000370 d0 93 33 bc 84 0f f2 bd b0 84 8c 3d 5e 4b a0 3d
       -0.010960534 -0.118193656 0.06861246 0.07826875
000380 39 6a 03 be 68 8c 6d be 3a 8b ea 3e fb 4b 2c be
       -0.1283349 -0.23198092 0.45809346 -0.16825859
000390 b3 12 d5 3e 51 2c d2 3e d6 5a a3 be 2a d4 95 be
       0.4161583 0.41049436 -0.3190524 -0.2926343
0003a0 33 4c e2 be a1 02 0e 3e 30 dc 19 bd c6 ba 79 bc
       -0.4419876 0.1386819 -0.037563503 -0.015242284
0003b0 9b c5 de 3d 58 08 24 bc d1 56 a4 bd 72 15 f3 bc
       0.10877534 -0.010011755 -0.080243714 -0.029673312
0003c0 59 80 85 bc 81 80 2e bd 1a c2 8a bd 85 3a 38 3e
       -0.016296552 -0.04260302 -0.06775303 0.17991073
0003d0 2f 6f f2 3d f9 d6 cf bd e5 31 b6 bc 40 80 8b 3d
       0.11837613 -0.10148425 -0.022240588 0.06811571
0003e0 d3 55 f8 3d ac 88 da be d0 b6 c6 3e 44 29 b1 be
       0.12125745 -0.42682397 0.3881135 -0.34601796
0003f0 99 df 7e bc b5 99 90 3f 41 ee c5 be 6f f4 11 3e
       -0.0155562395 1.1296908 -0.38658336 0.142534

bias f4 [512]
000000 63 ea 99 3e 95 52 6f 3d 37 4c f2 bd 51 55 48 3d
       0.30061635 0.058428366 -0.11830943 0.04890949
000010 f0 8a 22 3e fa e9 4b be b4 44 a5 3d b2 67 17 bb
       0.15873313 -0.19913474 0.08069745 -0.0023102579
000020 b2 22 fb bd f3 12 b5 bc 7a 92 af 3d cd d5 e3 bd
       -0.12262477 -0.022103762 0.0857286 -0.11124764
000030 f5 19 3a 3d c9 3f 74 3e 8f 0e 28 be 75 f1 5f bd
       0.04543491 0.23852457 -0.16411804 -0.05467363
000040 8c f9 04 be 90 70 39 be 2b 7e b1 bd 72 65 3c be
       -0.1298582 -0.18109345 -0.08666643 -0.18398073
000050 50 c1 dd 3d 31 65 0f 3e 2a 6a 09 bd ff ea 5b be
       0.10827887 0.14003445 -0.03354851 -0.21476363
000060 e6 e3 87 be 7b a3 34 3e 5e f4 41 3d 01 40 31 3c
       -0.2654106 0.17640488 0.047352187 0.010818482
000070 b4 1a 9c be 5e 7b 9d 3c 3c e7 c5 3d e2 f2 15 3e
       -0.30489123 0.019223865 0.09663245 0.14643434
000080 44 01 60 be 1e e8 6a be b2 6c bc 3d 47 b3 b1 3d
       -0.21875483 -0.22940108 0.092004195 0.086767726
000090 a0 81 43 be 6f f0 bc bd 23 34 1f be 96 90 98 bd
       -0.19092417 -0.092255466 -0.15547232 -0.074494526
0000a0 76 44 c8 ba d9 61 f3 3d 2e 7a b4 bd ad 7a 3f be
       -0.0015279192 0.11883897 -0.088123664 -0.18699141
0000b0 7f 4f 10 3e 1e 92 89 be f7 95 4a be cc a7 1c be
       0.14092825 -0.2686929 -0.1978377 -0.15298384
0000c0 9c f8 08 bd 4e 4f be bd 0d 90 29 be 57 d9 2a be
       -0.033440217 -0.0929247 -0.16558857 -0.16684471
0000d0 7a 91 a6 3d 82 0d 08 bc 4e da 17 be d9 fc e8 3d
       0.08133216 -0.008304002 -0.1482937 0.11376352
0000e0 f0 78 a5 bd cc fc ea bd f8 68 77 be 53 c5 71 bd
       -0.080797076 -0.114739984 -0.24161136 -0.059026074
0000f0 d9 b9 1f 3e c7 3e 12 be e4 d0 46 be 07 68 04 be
       0.15598239 -0.1428176 -0.19415623 -0.12930308
000100 60 98 65 3e 8d c2 34 3e a3 65 70 be bb a7 05 3e
       0.22421408 0.1765234 -0.23476271 0.13052265
000110 39 58 c1 bd 47 d4 33 bc 8c 94 71 bd bf 80 4c be
       -0.09440655 -0.010975904 -0.058979556 -0.19970988
000120 11 34 88 3e 8e d5 28 be 4a 82 8e 3e 67 0d 7a 3e
       0.26602224 -0.16487715 0.27833778 0.24419175
000130 5b cf 4d be 31 70 4a 3d cd 9e 1b be 8f bf 12 be
       -0.20098631 0.0494234 -0.15197296 -0.14330886
000140 a5 6a 12 be 15 fd 9b bd 31 b7 f0 bc d3 a2 3e 3d
       -0.14298494 -0.07616631 -0.029384227 0.046542
000150 0b df e2 3d 2d 99 15 be b1 c8 76 3c cc 53 32 be
       0.11077698 -0.14609213 0.015062497 -0.17414778
000160 98 06 9b 3d a9 8a 01 3e 26 9d 3f 3e 9e 67 e3 bd
       0.07569617 0.12650551 0.18712291 -0.11103748
000170 50 13 83 be 3e 79 55 3d d3 b5 54 3d fa 36 35 3e
       -0.25600672 0.05211758 0.051931214 0.17696753
000180 dd b0 cf bd 5f 90 d1 bc 04 7e 88 be 97 37 31 be
       -0.10141156 -0.025581537 -0.26658642 -0.17306362
000190 6a 48 65 3d f0 73 f3 3d b6 e1 e0 3d 06 7f 38 3e
       0.055977263 0.11887348 0.10980551 0.18017206
0001a0 c0 ab 39 bd 63 97 ea 3c 16 2d 84 3e 10 fd 3e bd
       -0.04532981 0.02863664 0.25815648 -0.046628058
0001b0 7a 52 1f be 29 50 70 3c f1 d4 a1 bd eb c4 8d bd
       -0.15558806 0.014667549 -0.079019435 -0.06922325
0001c0 c3 a8 87 3c ad c8 42 be 3e 89 f1 bc 3d 4e 0d be
       0.016559964 -0.19021864 -0.029484387 -0.13799377
0001d0 f6 3d 1d 3e 73 0f 2e 3d cd ee 7c 3d 8d 05 9a bc
       0.15355667 0.042495202 0.061751176 -0.018801475
0001e0 d3 80 19 bc e8 5d 71 be a8 9f 32 be 6a 02 52 3e
       -0.009369093 -0.23570979 -0.17443717 0.20508733
0001f0 0f 1d 7f be 1c 36 99 bd 26 a8 a7 bd 07 48 2a 3e
       -0.24913429 -0.07481024 -0.08186369 0.16629039
000200 e7 31 21 be cb 1e fe 3d c0 3e 03 bd cb 0c 24 3e
       -0.15741692 0.12408217 -0.032042265 0.16020505
000210 08 9e 22 3e 43 3a 1d bb 18 fc eb bd d0 38 a4 bd
       0.15880597 -0.0023991026 -0.115226924 -0.080186486
000220 c8 2a 08 3d 48 8b 29 be dc aa 5f bd 40 df c8 3d
       0.033243924 -0.16557038 -0.054606304 0.098082066
000230 7e 08 98 bb ee d1 65 3c e4 72 a4 3c 1b 2f 09 3e
       -0.004639684 0.014027102 0.020074315 0.13396876
000240 96 4c ef 3d 4b 1d d4 bd b8 cb 5c bd 46 64 f5 3d
       0.116845295 -0.1035715 -0.05390522 0.11982016
000250 16 cb 1c 3e b6 0f 53 be e1 c1 0c be 4e c0 6f 3e
       0.15311846 -0.20611462 -0.13745834 0.23413202
000260 44 70 80 bd 23 3a e2 3d 1e bd 91 3e 73 44 e1 bd
       -0.06271413 0.11046245 0.28464597 -0.10999384
000270 ea 2c 65 be 0d 2f e3 3d 1f 19 b8 bd 70 d4 9b 3d
       -0.22380415 0.110929586 -0.089891665 0.076088786
000280 66 4a 5e be 8d 91 ba 3d 5d f0 a6 bd 7c 01 2e be
       -0.21708068 0.09109793 -0.081513144 -0.16992754
000290 43 dd 7b 3d 6d bf ce 3e 15 e3 2b be d4 f0 3f be
       0.06149031 0.4038042 -0.16785844 -0.18744212
0002a0 8e 43 27 3d 53 d5 c6 3d 74 39 44 bd bb ea 14 be
       0.04083591 0.09708657 -0.047906354 -0.14542668
0002b0 21 16 1c 3d 90 9d ee bc 7d 9e 66 3d 52 c1 c1 bd
       0.03810704 -0.029127866 0.05630349 -0.09460701
0002c0 bb 3f 4b be e0 60 72 bd 14 73 71 3d 55 93 07 bd
       -0.1984853 -0.05917442 0.058947638 -0.03309949
0002d0 98 5f 84 be cd d7 b8 3d c8 db 82 be 8c f2 a2 bd
       -0.25854182 0.09025536 -0.25558305 -0.079564184
0002e0 ef 46 11 bd af 86 86 be 3e 47 c6 3e 67 fa 95 3e
       -0.03546804 -0.2627463 0.38726228 0.29292604
0002f0 86 b5 06 bd 07 2b 2f 3d 9d a6 46 3e a1 fe 7c 3e
       -0.032887958 0.042765643 0.19399495 0.24706508
000300 bb dc b5 bd 8c 7b 37 3d a3 fe 47 3c 7b dc 1c bc
       -0.088799916 0.044795558 0.012206706 -0.009574051
000310 13 9c 1d 3e 1b a1 4d be 03 6f 05 3e ca 9e 81 bd
       0.15391569 -0.20080988 0.13030629 -0.06329115
000320 78 9b 4f be 63 53 66 3e 54 84 3f 3b 50 3e f1 bd
       -0.2027415 0.22492747 0.002922316 -0.11779463
000330 b8 0d d1 bd 84 ca e6 3c 78 b4 4a be e1 83 05 bd
       -0.10207695 0.028172739 -0.19795406 -0.032596473
000340 93 3e 89 bd 54 b0 b9 bd 9d b7 8c 3e bf d0 3c 3e
       -0.06701388 -0.09066835 0.27483836 0.18439005
000350 38 94 71 3d c2 56 3f bc 60 ce 65 3e 22 5f a7 bd
       0.058979243 -0.0116783995 0.22442007 -0.08172442
000360 72 e1 b6 3d ea 33 6f bb fc 3f dc bc 8e b1 59 be
       0.08929719 -0.003649945 -0.026885979 -0.21259138
000370 22 f4 63 3d e4 81 47 bc 8b 72 ba bd 5c 38 e9 3c
       0.055652745 -0.012176964 -0.091038786 0.028469257
000380 29 62 2b bd 2a a0 80 bd aa b8 2f be dd 83 ec 3b
       -0.04184166 -0.06280549 -0.17160287 0.0072178678
000390 0c 28 c3 3d 23 8e 2e 3d 22 b4 2f 3d a7 7a 19 3e
       0.09529123 0.04261602 0.042896397 0.14988194
0003a0 af c8 91 3c 92 65 44 3d e0 02 f8 3d ad 5d 83 be
       0.017795889 0.047948427 0.12109923 -0.25657406
0003b0 8c 99 88 3d 73 cc 8a be 6e 42 a9 3d 45 64 3d bd
       0.06669912 -0.27109107 0.082646236 -0.046238203
0003c0 7a 14 13 3c 31 1c e7 3b 92 f6 82 bc bc cf 1c bd
       0.00897705 0.007052921 -0.015986715 -0.03828405
0003d0 27 e6 89 bd 1c 22 18 3e 0b 74 03 be 00 7d 28 3e
       -0.06733351 0.14856762 -0.12837236 0.16453934
0003e0 aa 70 ea bd b4 1c b7 bd 66 a2 60 bd 27 f6 5b be
       -0.1144727 -0.089410216 -0.054842375 -0.21480618
0003f0 f6 63 c8 be 5f b5 58 bd ac d7 06 bd 82 a0 3f 3e
       -0.39138764 -0.052907344 -0.032920524 0.18713573

weight f4 [256, 512]
000000 4e fe 5d be ef ac 0f 3d d0 37 92 be 20 0f 7e be
       -0.21679041 0.03507703 -0.28558207 -0.24810457
000010 22 bf 11 be 58 d3 63 3d a6 46 bc bd ef 78 24 be
       -0.14233068 0.055621475 -0.091931626 -0.16061758
000020 c2 ea 82 3c f4 fa 13 3e 06 b5 9f be 26 75 77 be
       0.015981082 0.144512 -0.31192797 -0.24165782
000030 c9 42 c3 bd 3a 4a a4 3c 47 f9 d0 bd 5d df 9a bd
       -0.09534223 0.020054925 -0.10203796 -0.075621344
000040 c6 85 8d 3e 25 e8 ec bd 77 35 b8 bd 63 4e 1d be
       0.27641124 -0.115677156 -0.089945726 -0.15361933
000050 ff 58 95 be 81 2f 30 3c 1f 32 73 be 17 52 da 3d
       -0.2916946 0.010753513 -0.23749588 0.10660189
000060 5a 3e c5 bd 5c fb 10 be 81 2d 80 3e 2d 1c 68 bc
       -0.09631033 -0.14158386 0.25034717 -0.014166874
000070 54 1e 4f 3e 13 be 93 3e 79 00 16 bd b6 1f 26 bd
       0.20226413 0.28855953 -0.036621545 -0.040557586
000080 82 c5 8a 3e 15 91 32 be 42 0d 27 bd f7 af 58 3d
       0.27103812 -0.17438157 -0.040784128 0.05290219
000090 80 5c 46 be b5 16 ce 3d 35 41 0d be a3 e2 d1 bc
       -0.19371223 0.10062925 -0.13794406 -0.025620764
0000a0 90 4d 19 3d 0e 86 94 3d 0c b1 4a bd 35 ed 9c bc
       0.037427485 0.072521314 -0.04948525 -0.019156078
0000b0 79 06 c5 3d 9e f1 f1 bc f6 8c cf bd bb 0d d1 bd
       0.09620375 -0.029534157 -0.10134308 -0.10207697
0000c0 b3 74 26 bc 90 83 7b bd d8 94 49 bd a4 5b a1 bc
       -0.010159659 -0.061404765 -0.049214214 -0.019697018
0000d0 2c 78 b6 3b e9 7b b8 3d f8 c7 f3 3c 2b 68 e8 bd
       0.005568525 0.09008009 0.029758438 -0.113479935
0000e0 95 6c 77 3e 67 ce c6 bd 51 a4 ad 3c 7a 87 14 be
       0.24162515 -0.09707337 0.021196516 -0.14504805
0000f0 15 f8 e3 bd 77 63 0f 3e 27 66 8b 3c 2a 86 d4 bc
       -0.11131302 0.14002787 0.017016483 -0.02594288
000100 79 9d 8a 3c b9 42 1a be 1a 03 46 be 45 0a 36 be
       0.016920792 -0.15064515 -0.1933712 -0.17777355
000110 b3 0d 12 3c 31 0e 1b 3d e5 22 da bd c7 84 c2 bc
       0.008914399 0.03785533 -0.10651187 -0.023744954
000120 88 b6 47 bd aa 46 14 3e aa ac 33 3b 13 ee 52 bd
       -0.04875806 0.14480081 0.0027416148 -0.051496577
000130 0b a8 9f bd 10 d5 05 bc ca 1d e8 bc f2 35 03 be
       -0.077957235 -0.008168474 -0.028334517 -0.12813547
000140 db f2 ee bd 8d bd 0c be 74 d1 a5 bd 4a 97 40 be
       -0.11667415 -0.13744183 -0.08096591 -0.18807712
000150 4a b4 c1 bd 6a 33 9c bd df 83 97 3e 76 4a 3a 3d
       -0.094582155 -0.07626994 0.29592797 0.045481168
000160 da 95 9f bd b9 f4 81 bd 6e 33 36 be da 31 a7 3e
       -0.07792254 -0.06345505 -0.17793056 0.3265522
000170 40 77 43 bd 79 d3 f6 bc e5 98 9a bb ab 41 ad 3d
       -0.047721148 -0.030130135 -0.0047179335 0.08459791
000180 f6 1d 69 3b 24 09 d3 bd dc 98 07 3e 2b 07 9a bd
       0.0035570837 -0.10304478 0.13241905 -0.075208984
000190 76 5a 6f 3e a6 34 10 bc bb 6e 0c 3d 73 17 5c be
       0.23374352 -0.008801615 0.03428529 -0.2149332
0001a0 7c df 2b be d4 27 27 be 12 5d 05 bd e6 96 40 3e
       -0.16784471 -0.16323787 -0.032559462 0.18807563
0001b0 e3 ad 40 3e 6a 26 a2 bd 15 bc 90 3d d8 e1 8b 3d
       0.18816333 -0.07917483 0.07067124 0.06830186
0001c0 f3 0c 14 3e ab 9f 87 3e 3c 96 3f 3d aa 77 7d 3e
       0.14458065 0.26489004 0.046774134 0.2475268
0001d0 19 3c 1b be 25 42 15 be ed 32 51 3d da 97 dc bd
       -0.15159644 -0.14576013 0.051073957 -0.10771151
0001e0 be d1 1b bd 33 ef 06 3d 67 fe a8 bd 9b 54 ac 3d
       -0.038041823 0.032942962 -0.082516484 0.08414575
0001f0 4b 27 51 3e b2 88 c0 3e ee 80 10 3d af 13 60 3e
       0.20425145 0.3760429 0.035279207 0.21882509
000200 dd 9e 03 be bf b1 8a 3d 22 7e 71 bd 02 88 2a 3b
       -0.1285357 0.067721836 -0.05895818 0.0026021008
000210 7b 4d 29 3e ae 74 43 be a6 f3 4c bd 0b 41 ad 3c
       0.16533463 -0.19087479 -0.05003705 0.021149179
000220 d5 eb 4d 3e e2 75 6e 3d 63 f8 f6 3d 27 88 46 3e
       0.20109494 0.05821789 0.12059095 0.19387875
000230 b2 39 c2 bc 9d 31 1b bf 29 9e c5 3c a9 90 2e be
       -0.023709152 -0.6062258 0.024123268 -0.17047371
000240 46 f2 48 3e 28 7a 79 bd c9 1a d3 3c 18 82 dd 3d
       0.1962367 -0.060907513 0.025769608 0.10815829
000250 bb 62 62 3e d3 a3 87 3d cc 2a 21 3e d9 62 8d bd
       0.22107975 0.06623044 0.15738982 -0.06903619
000260 7c e1 f3 3c 46 c8 34 3d b7 5a 81 3d f6 c4 68 bd
       0.029770605 0.044136308 0.063161306 -0.05682846
000270 29 a8 d7 bd 61 fe 3f be eb e7 cf bd da fb 38 3e
       -0.10530121 -0.18749382 -0.10151657 0.18064824
000280 4f d1 e8 bd 38 8e 11 bd 6f 02 aa 3d 19 42 bc bd
       -0.113680474 -0.03553602 0.083012454 -0.091922946
000290 18 56 44 bd 9a 0a 85 3d 73 36 61 3d 0f ac 3b 3c
       -0.047933668 0.06496163 0.054983567 0.011454596
0002a0 fa 47 12 3d d0 a8 60 be 10 3c 89 3c 6c a7 98 3d
       0.035713173 -0.21939397 0.016752273 0.07453808
0002b0 cd 42 40 bc 55 37 73 3d 3a bc 15 bd 4a 21 b4 bd
       -0.011734677 0.05937894 -0.03655646 -0.08795412
0002c0 9e ed 69 bd f2 0a 2d 3e db 4f 31 bd 24 9c 84 3c
       -0.057111375 0.16898707 -0.043289047 0.016187735
0002d0 8e 40 e1 3d 7a 97 7f 3e f0 17 5d 3e cc 98 bb 3c
       0.10998641 0.24960127 0.21591163 0.022900008
0002e0 fd e9 95 3c b0 1f 4b bb b6 5b 31 3d 4a e0 b7 3d
       0.01830005 -0.003099423 0.043300353 0.089783266
0002f0 10 58 d3 bd 7f fd a0 3d f5 e2 92 be 9c 5b 99 bd
       -0.10319531 0.078608505 -0.2868878 -0.07488176
000300 ea 31 d5 bd e8 36 b9 bc f6 7b 16 3e 2b e0 8a 3d
       -0.10409911 -0.02260919 0.14695725 0.06781038
000310 eb 6a d8 3d 7e 15 03 3f 43 c4 38 be 4f 39 73 3d
       0.10567268 0.5120467 -0.18043618 0.059380826
000320 30 50 84 3d bc 3e bd 3d 88 11 c4 bc a4 f2 54 3e
       0.06460607 0.09240481 -0.02393414 0.20795685
000330 ba 65 81 3e 56 05 23 be 74 38 f3 3d be d8 59 be
       0.25272924 -0.15920004 0.11876002 -0.21274087
000340 c9 04 b5 3d 0a 76 bb 3d e4 9c 10 bc cb 09 e0 bd
       0.08838803 0.091533735 -0.008826468 -0.10939368
000350 31 bc 94 be 7a 35 af bd 4a bb 56 bd 2e 7d 9b 3c
       -0.2904983 -0.08555122 -0.052424707 0.018980589
000360 71 b4 18 be 14 12 db be 3f 67 56 be 0d 0e 2f be
       -0.14912583 -0.4278723 -0.20937823 -0.17095204
000370 c5 56 de bd 92 27 79 be d5 3b 87 3e 9c 3b 58 3c
       -0.10856394 -0.24331501 0.26412836 0.013197806
000380 fd 6d 11 be bc af 2d be c4 87 c9 3d 14 99 88 3e
       -0.14202113 -0.16961569 0.09840348 0.2667929
000390 e4 42 d9 39 76 84 9e 3d cc f4 cc bc ec be ea bd
       0.00041439303 0.07740109 -0.025019072 -0.11462197
0003a0 e4 08 46 3d 3d 5e 8e be a1 33 e5 3d 08 6a ea 3d
       0.048348323 -0.27806273 0.11191488 0.11446005
0003b0 19 49 29 bd 22 9d 96 bd 98 fc 31 be 71 ba 1d bd
       -0.041329477 -0.073541895 -0.17381513 -0.038507883
0003c0 1a ea 94 bd 3b 2c 6a be 76 5d 49 be 98 c5 09 be
       -0.07271214 -0.22868435 -0.19664559 -0.13454282
0003d0 d0 e9 29 be b3 f9 71 3d 33 5e 92 3d c3 be 9d be
       -0.16593099 0.059076022 0.07146873 -0.30809602
0003e0 55 d6 dc bd 8c ad ce bd ea 24 42 bd 9b a6 e3 3e
       -0.10783068 -0.10091695 -0.047398485 0.44463047
0003f0 98 1f 61 be 2b cb 77 bc e0 29 a4 be 68 70 8b be
       -0.21984708 -0.015124123 -0.32063198 -0.27234197

bias f4 [256]
000000 30 62 14 be c9 8b ea bc 7f 12 7f be 9b a0 72 bd
       -0.1449058 -0.028631108 -0.249094 -0.059235197
000010 8d bd 75 be 90 85 8a be c7 f9 aa be eb ed bb bd
       -0.23998089 -0.27055025 -0.3339369 -0.091762386
000020 12 bb 5b be 72 0c 29 be 14 4a a5 bc 25 70 52 bd
       -0.2145808 -0.16508654 -0.020176925 -0.05137648
000030 a6 2c 41 be 67 77 90 bd 6b 0c 32 be 59 d7 67 be
       -0.18864688 -0.07054024 -0.1738755 -0.22640742
000040 22 2e 0b bd f6 36 c4 3a bc 38 64 3b 98 ce 1e be
       -0.033979543 0.0014969993 0.0034823855 -0.15508497
000050 a5 de 1e be 28 5e b1 bd 76 d7 10 bd 4a 82 a5 bd
       -0.1551462 -0.08660537 -0.03536173 -0.08081491
000060 de 38 9b be fc 65 1e 3c 70 d9 e5 bd dc 88 07 be
       -0.30316824 0.00966787 -0.112231135 -0.13235801
000070 60 8b 40 be 0b fb 2b 3c 18 89 b5 bc 3d 51 53 be
       -0.18803167 0.010496865 -0.022160098 -0.20636459
000080 e1 94 2a be 91 ce 72 3c 28 1b 2f 3d 0d d8 82 3b
       -0.16658355 0.014819757 0.042750508 0.0039930404
000090 f1 1b 33 be ec fd 2c be 84 c9 84 3c 8c 7b 18 be
       -0.17491128 -0.16893739 0.016209371 -0.1489088
0000a0 a8 73 d6 3c c1 91 62 3d 9b e6 23 be 8c 4b d4 bd
       0.026178196 0.055314783 -0.16005938 -0.10365972
0000b0 b2 34 54 bd 45 4d 84 be 12 0d a8 bd 3e 35 79 be
       -0.051808067 -0.25840202 -0.08205618 -0.24336717
0000c0 33 aa 4d bd cd 75 4f bd 4c e4 de bd 78 4a b3 bd
       -0.050211143 -0.050649453 -0.10883388 -0.08754438
0000d0 be de 9f bd 65 97 c2 bd 4c 3a 4c bd eb 0e 94 bd
       -0.078061566 -0.095015325 -0.049860284 -0.07229408
0000e0 ce 84 30 bd 39 bc 47 bd 58 c1 84 bd 96 ac b8 be
       -0.043095402 -0.048763487 -0.0648219 -0.36069173
0000f0 69 20 0a be 1c fc 05 be c0 62 7f bd d0 01 03 be
       -0.13488926 -0.13084453 -0.062350035 -0.1279366
000100 f2 15 1e bd 66 ec 05 bd c1 9e 84 bd db 95 88 be
       -0.038595147 -0.03269615 -0.064755924 -0.2667683
000110 50 62 9c bd b4 0f 09 be ff eb e2 be cc 46 1e bd
       -0.07635939 -0.13384897 -0.44320676 -0.038641736
000120 01 4f 5b bd 44 b2 62 be 7d 00 4f bd 17 a6 31 be
       -0.05354214 -0.22138315 -0.050537575 -0.17348514
000130 fd a6 2d bd 75 8e 87 bd 4a 5f eb bd cf 56 f2 bd
       -0.04239558 -0.066189684 -0.11492784 -0.11832964
000140 07 3e c1 bc 30 38 a1 ba 0a 7b 60 be 62 7d 75 bd
       -0.023589147 -0.001230007 -0.21921936 -0.059934027
000150 fe 25 c9 bd 1a c7 56 be c2 f8 33 3d f1 38 c3 bd
       -0.098216996 -0.20974389 0.043938406 -0.09532345
000160 b7 c1 0c bd f0 c1 64 bc 20 1f 1f be 6b 07 4d be
       -0.03436443 -0.013962254 -0.15539217 -0.20022361
000170 15 b3 66 be 84 e6 3e be bc 25 ea bd 12 5b 10 be
       -0.22529252 -0.18642622 -0.114329785 -0.1409724
000180 ce 2b 67 bd 85 f4 0f bc 7b ba c5 bd c0 a8 2a be
       -0.05643826 -0.008786325 -0.09654709 -0.16665936
000190 77 9b 2c be 60 35 23 be 8b 3d 7d be fa 15 2a bd
       -0.1685618 -0.1593833 -0.24730508 -0.041524865
0001a0 33 88 a0 be 22 4c 04 be d1 4e 38 be 14 dd 01 be
       -0.31353912 -0.12919667 -0.17998816 -0.12681991
0001b0 cb 12 a0 bd 96 97 b3 bd f8 31 ce bd 31 4d ee bd
       -0.078160845 -0.08769147 -0.100681245 -0.11635817
0001c0 7d 19 ad bd 69 0c 03 be 7c 79 35 be 78 22 b4 bd
       -0.08452127 -0.12797703 -0.17722124 -0.08795637
0001d0 b2 44 38 be fd 95 6a be 4d 9a 94 bd ef 62 4b bb
       -0.17994955 -0.22908778 -0.07255993 -0.003103431
0001e0 9d 01 56 bc d3 9e 72 bd fc 6c b4 bd 44 df 07 be
       -0.013061908 -0.059233498 -0.088098496 -0.13268763
0001f0 fa b6 00 bd db 6f 0f bc 43 03 ec bd 8a 0d 44 be
       -0.0314245 -0.008754696 -0.115240596 -0.1914579
000200 0c 26 87 be c7 a8 55 be b2 d3 df bd 22 4b 18 be
       -0.26396215 -0.20865165 -0.109290496 -0.14872411
000210 c4 f3 8a bd a5 be 24 be fa 31 90 be e2 59 1c bc
       -0.06784776 -0.1608835 -0.2816313 -0.009542914
000220 3a 6a 9f bd 09 c5 fa bd 93 70 91 bd 1d 78 40 be
       -0.07783933 -0.12244613 -0.0710155 -0.1879582
000230 e2 4b a9 bd db d1 17 be 60 ae 0d 3a e2 84 ed bd
       -0.082664266 -0.14826147 0.0005404707 -0.11597611
000240 17 16 aa bd 25 69 f2 bd 51 71 2b be 9f 5c f5 bd
       -0.083049946 -0.11836461 -0.16742446 -0.11980557
000250 44 9a 1d 3b 11 fb 2a bd 67 0b ec bc 55 85 99 bd
       0.0024048248 -0.04174334 -0.02881403 -0.07496134
000260 9a 84 d9 bd e7 16 26 be ae 87 7e 3c 32 16 c3 bd
       -0.10620995 -0.16219674 0.015535278 -0.09525718
000270 bc 19 6d be 3c f9 5e be f4 11 17 be 56 33 fd bd
       -0.23154348 -0.21774763 -0.14752942 -0.12363307
000280 f4 5e f3 bc 0f 6e 48 be 5f cf 4c be 8f 80 fd bd
       -0.029708363 -0.19573234 -0.20000981 -0.12378036
000290 f6 25 92 bc b7 31 39 be 10 d4 e1 bd 0f 7d ad 3d
       -0.017840367 -0.18085371 -0.11026776 0.08471119
0002a0 10 1d 37 be 24 96 17 3c d5 a1 2e be c3 62 7b be
       -0.1788218 0.009252105 -0.17053922 -0.24549393
0002b0 5d 85 89 bd 59 ac 99 bd 59 64 62 be 80 47 4c be
       -0.0671489 -0.07503576 -0.22108592 -0.1994915
0002c0 bf 67 aa bd c1 67 f7 bd 36 0c 50 be 14 ea f6 bd
       -0.08320569 -0.12080336 -0.20317158 -0.120563656
0002d0 79 c8 b1 bd 44 11 dd 3b 0a 43 86 bd 6f 91 45 3e
       -0.08680815 0.006746443 -0.065557554 0.1929376
0002e0 bd cc e6 bd a8 b6 43 bd 34 5d 41 be a7 1f 20 be
       -0.112695195 -0.047781616 -0.1888321 -0.15637074
0002f0 67 bc 3e be fc 2d ac bd c5 a5 51 be cb 2a dc bd
       -0.18626557 -0.08407208 -0.20473392 -0.107503496
000300 46 28 9a bd 9a b7 e2 bd 15 4f 0d be c9 40 5c be
       -0.07527213 -0.110701755 -0.13799699 -0.21509089
000310 b9 1f 14 be dd 6e 61 be 2b 07 6a be 17 57 dd bd
       -0.14465226 -0.22014947 -0.22854297 -0.10807627
000320 e8 3a 33 be d6 ba 12 bd 31 ee d2 bd 75 d7 6b bc
       -0.1750294 -0.035822712 -0.10299338 -0.014394631
000330 69 c4 e0 bd 73 03 1d be bc 18 3b be 5e 7b 35 be
       -0.10974962 -0.15333347 -0.18271154 -0.17722842
000340 c5 81 05 be 48 b2 97 3c ba 28 88 bd 7a 46 1d be
       -0.13037784 0.018517628 -0.06648393 -0.15358916
000350 6e 29 64 be 80 a8 24 bd e9 c8 a0 bd 57 f2 48 be
       -0.22281429 -0.040199757 -0.078508206 -0.19623695
000360 48 99 46 be 95 3a dc bd 8d 6e 17 bd 14 87 8c bd
       -0.1939441 -0.10753361 -0.036970664 -0.068617016
000370 cd e7 e2 bc ba 57 c9 bd fb 0a 7d be cb 5f 59 bc
       -0.027698422 -0.09831186 -0.2471122 -0.013267468
000380 42 2a 6c bd 2b 1e 81 bd f5 fd 99 bd f5 02 a4 be
       -0.057657488 -0.06304582 -0.075191416 -0.32033506
000390 3f 2a eb bd 6f 1a 1d be 6d a2 1a be e0 0c a4 bd
       -0.11482667 -0.15342115 -0.15101023 -0.08010268
0003a0 b4 63 78 bd 4f e6 d7 bd a8 b3 6c be 5f 83 7d bd
       -0.06064196 -0.10541975 -0.23115408 -0.061892863
0003b0 ec c5 b3 bc 41 3d e0 bd 87 23 d7 bd 4e c0 73 3d
       -0.021944962 -0.10949183 -0.10504823 0.059509568
0003c0 c1 4c 8d bc 9f aa a4 bd 68 10 af be 7a f5 00 be
       -0.017248513 -0.08040356 -0.34192204 -0.12593642
0003d0 bb 65 8c bd 56 11 83 bd 35 9d db bd d2 09 c7 3b
       -0.06855341 -0.06399791 -0.10723344 0.0060741687
0003e0 a5 62 52 be 9b 27 28 be d1 93 8f bd 19 40 6c be
       -0.20545442 -0.16421358 -0.070106156 -0.23071326
0003f0 ff d7 07 be c6 a6 82 bc 93 9f 3a be c9 c8 b8 bd
       -0.1326599 -0.015948664 -0.18224935 -0.09022672

weight f4 [128, 256]
000000 8e 89 8a 3c dc 54 36 3e c9 d8 7d bd d2 0a 54 bd
       0.016911294 0.17805809 -0.06197432 -0.05176813
000010 f2 24 a5 bd 91 e7 16 3e eb 5f 57 bc 3d d0 93 bd
       -0.080636874 0.14736773 -0.013145427 -0.07217453
000020 b6 ca f3 bd bf bc b8 3d 29 88 c1 bd cc c3 5f bd
       -0.119038984 0.090203755 -0.094497986 -0.054630086
000030 29 7e 71 3d 85 cd 3a bd 3f 57 27 ba 53 7b bc bc
       0.058958206 -0.045606155 -0.0006383545 -0.023008024
000040 b1 8d b5 bc ca e6 0a be 39 d4 24 3c f6 d5 3c bd
       -0.02216229 -0.13564602 0.010060363 -0.046102487
000050 3a 35 c7 bd 9c 4b 91 3d 06 91 b0 bc 30 3c 24 3c
       -0.09726949 0.070944995 -0.021553528 0.010024115
000060 33 be 6a 3d b9 dc 33 bc 74 8b 3d bc 80 77 b5 3d
       0.057310294 -0.010977917 -0.011568893 0.088606834
000070 03 ea 75 bc 82 63 b8 bb f8 f1 f7 bd 82 fc 84 3d
       -0.015009406 -0.0056270966 -0.12106699 0.064934745
000080 82 13 24 3c 43 93 c5 bc a7 23 e3 bd e2 9b bd bd
       0.010014417 -0.024118071 -0.110907845 -0.09258248
000090 47 31 76 be 01 b4 95 bd 1b df 0d bd ab 51 d2 3d
       -0.24042235 -0.07309724 -0.034636598 0.10269483
0000a0 81 03 80 bd b7 b1 81 bc d9 d9 58 bd c3 21 a7 bd
       -0.06250668 -0.015831811 -0.05294213 -0.081607364
0000b0 e9 8d 35 3d 39 af 63 bd e6 62 7a bd 97 60 82 bc
       0.04432479 -0.055587027 -0.061129473 -0.015915198
0000c0 4d b2 ea bd 2a 49 a0 3d 65 8e 74 bc 34 bd d4 ba
       -0.114597894 0.07826455 -0.014926528 -0.0016230703
0000d0 7f c8 e1 3b e3 24 a5 bd 41 0e b4 3c 73 29 ce 3c
       0.006890356 -0.08063676 0.021979453 0.025166249
0000e0 54 f7 1b 3d 41 50 6d be ad c1 dc 38 55 49 86 bd
       0.038077667 -0.23175146 0.000105264924 -0.06556956
0000f0 d1 fa 13 3d 19 f5 e3 3d f3 2f 7b 3d 1d a8 c0 3c
       0.03612787 0.11130733 0.061325025 0.023517663
000100 aa bc cd bc d0 4e 64 3d 42 83 cd 3d b9 50 ea bc
       -0.025114376 0.055739224 0.10034801 -0.028602945
000110 dc f4 80 3d c9 27 23 bb 4a b9 8a bd 29 21 5d 3d
       0.06296703 -0.002489554 -0.06773622 0.053986702
000120 b5 82 9a bd ef c3 92 3c a4 2f b7 3b 3c b1 77 bd
       -0.07544462 0.017915694 0.005590396 -0.06047176
000130 0e cc 0d 3d 6d fb 68 be c0 0d b2 3c 95 58 ac 3d
       0.03461843 -0.22752161 0.021735072 0.08415333
000140 0d 10 e6 bd 1b 63 92 bd 3b dc 51 3d 51 1a 36 bc
       -0.1123353 -0.07147809 0.05123542 -0.011114673
000150 71 17 97 3c 29 ec c6 bc 01 02 0b be 4c b9 c0 3c
       0.018443795 -0.024282532 -0.13574983 0.023525856
000160 69 bb 08 bd df 08 ad bd 89 bd 30 3c ca 77 dd 3b
       -0.033381853 -0.08448958 0.010787376 0.0067586647
000170 32 db 56 bd 28 31 1e bc 94 b2 84 3d bb 6d 0d bc
       -0.052455135 -0.009655274 0.064793736 -0.008632119
000180 85 3f f9 bd 3a f1 30 3d ee 61 78 bc b0 af 84 bd
       -0.121703185 0.0431988 -0.015160067 -0.06478822
000190 10 62 7b 3d 48 c2 a6 3d 14 0f 87 bd f0 63 cf bd
       0.061372817 0.08142525 -0.06594673 -0.101264834
0001a0 98 e8 40 3d 18 a9 8c 3d 0d d5 07 bd 15 43 1c 3c
       0.04709682 0.068681896 -0.033162165 0.009537478
0001b0 2e 4f 6e bd 61 0f 04 be e2 ae bb 3a 9b 43 bc 3c
       -0.05818098 -0.12896492 0.0014319087 0.022981456
0001c0 57 35 4e 3d 1b 41 c7 3d d6 96 e6 3b cc ea 1f bd
       0.050343838 0.09729215 0.007037024 -0.03904228
0001d0 f3 19 a6 bc 9c bd 3e 3d a3 cb 08 3c 5a be ac 3c
       -0.020276045 0.046567544 0.008349332 0.02108686
0001e0 33 59 67 bb 6c 9c 50 3d 4a 22 ed bc 79 98 fc 3d
       -0.003530097 0.050930426 -0.028947014 0.12333769
0001f0 f6 19 33 3d 5d 64 c3 bd 15 2f 05 bd 86 27 9a bb
       0.04372593 -0.09540627 -0.032515604 -0.0047044186
000200 0e a2 e6 ba 87 50 36 bd 9a 6b 5e 3d d6 17 d8 3d
       -0.0017595903 -0.04451039 0.054301836 0.10551421
000210 69 14 13 bc 9f d8 05 be 6f e5 31 3c 51 20 4a bd
       -0.008977034 -0.13070916 0.010857924 -0.049347226
000220 11 57 9d 3d 4d 4a 13 3e 23 68 b8 3c 61 e2 7b bd
       0.07682622 0.14383812 0.022510594 -0.06149519
000230 3c 94 fd bc e2 7a e5 bb 42 22 42 3d 7f 11 11 bd
       -0.030954473 -0.007003174 0.047395952 -0.035417076
000240 e6 69 56 3d 50 11 0b 3c ac cc 9b bd 3a 0b 59 3c
       0.052347086 0.008488014 -0.076073974 0.0132473055
000250 c9 96 70 bd ce 63 01 be fa 84 d3 bd 77 56 9b bb
       -0.05873755 -0.12635729 -0.10328098 -0.004740532
000260 8c 5f 1f bd 7c 8e 80 3d c6 29 67 bd 51 21 2c 3d
       -0.03890948 0.06277177 -0.056436323 0.04202396
000270 4e 49 37 3d 6c 3f 19 bd 7e d3 69 bc 07 ce ad bd
       0.044747643 -0.037414 -0.014271615 -0.08486562
000280 82 40 bf 3c 36 aa 31 3d 69 d1 26 3c 54 85 39 bd
       0.02334619 0.043375216 0.010181763 -0.045293167
000290 1f d5 70 bc 15 64 dc bd fa ed 01 be 90 d1 07 bc
       -0.0146992495 -0.10761277 -0.12688437 -0.00828971
0002a0 fb 8a c8 3d 0a be 4d 3d b9 60 e6 bd 14 e2 4d 3d
       0.097921334 0.050230063 -0.11248917 0.050264433
0002b0 61 e1 16 be 3c 3d e8 bd 6a e5 57 3c e5 dc a7 bd
       -0.14734413 -0.113398045 0.013177255 -0.08196429
0002c0 1a 70 a9 3d 6b c6 74 bc 09 b3 72 3d d5 3d 98 3c
       0.08273335 -0.014939885 0.059252772 0.018584171
0002d0 97 2c 2b be 6c 84 05 be a4 16 38 3d 36 c8 8d bd
       -0.16716228 -0.13038796 0.044943467 -0.06922953
0002e0 78 20 09 be 7e f6 9d 3d 01 6b 49 bc 12 dc 2c bd
       -0.13391292 0.0771303 -0.012293578 -0.042202063
0002f0 f6 29 02 3e 38 9d e6 3d fe 23 0c be 48 10 3c bd
       0.1271132 0.11260456 -0.13685605 -0.045913965
000300 aa 6f 81 bc 55 b7 56 bd c9 08 3e be b3 a9 f9 3c
       -0.015800316 -0.052420933 -0.18558039 0.030476427
000310 e7 85 6e bc 84 0a bc bc 6a 58 0a bd 86 cc f9 3b
       -0.014558292 -0.022954233 -0.033775724 0.007623258
000320 f7 f8 18 3d 94 88 1e 3d 44 68 af 3b 30 a9 ac bd
       0.037346806 0.03870447 0.0053530056 -0.084307075
000330 f0 26 5f bb fb e5 1b 3d a2 b2 ae bc de 5e 10 be
       -0.0034050308 0.038061123 -0.021325413 -0.14098689
000340 86 b5 e1 bd 09 da 67 3d fc f3 9b bc a5 99 84 3d
       -0.11020951 0.05660442 -0.01903724 0.06474618
000350 eb 8b 05 3d 23 96 4c be 7c 22 04 bd 03 70 b1 bc
       0.03260414 -0.19979148 -0.03225945 -0.021659857
000360 69 78 ab bb 26 3f 46 3d 7b f2 b5 bd a0 e7 8f 3c
       -0.00523286 0.048400067 -0.0888414 0.017566502
000370 f9 f5 e7 3c 74 e3 e5 3d 4f 57 35 bd cc 42 97 bd
       0.028315531 0.11225024 -0.044272717 -0.07385787
000380 36 4f 39 bd 28 60 84 ba a8 ff 99 3c e5 ca 21 3d
       -0.045241557 -0.0010099458 0.018798664 0.039500136
000390 ae 60 db bc a2 82 46 3d 8c 4f d3 bd 66 be 4d bd
       -0.026779499 0.048464425 -0.10317907 -0.050230406
0003a0 ab dd e7 bd b4 78 5d 3d a6 8b 13 bd af 6a d6 bd
       -0.11321577 0.05407019 -0.03602185 -0.10469567
0003b0 e4 04 83 3d 65 6a 1f bd 07 37 21 bd 80 34 e9 bc
       0.06397417 -0.038919825 -0.03935912 -0.028467417
0003c0 7f c2 ad bd e5 55 58 bd 85 70 1b 3c 50 3d 49 3b
       -0.08484363 -0.05281629 0.009487276 0.003070671
0003d0 b3 f2 dd 3b 6d a9 4f 3d dc 60 d9 3c 37 2e 65 be
       0.0067733168 0.050698686 0.026535444 -0.22380911
0003e0 ac 57 dc 3d 84 6f d3 bd 8a bb 2e 3d d3 13 13 bd
       0.107589096 -0.10324004 0.04265932 -0.035907578
0003f0 f3 78 00 be f8 de ff bc bc d1 da bd 9c 11 59 3d
       -0.12546138 -0.03123425 -0.10684535 0.05299531

bias f4 [128]
000000 04 56 02 be d2 69 0b bd d8 96 dd bd 4a e2 27 be
       -0.12728125 -0.034036465 -0.10819787 -0.16394916
000010 c2 82 da bd 63 e9 09 be 7d 39 57 be 5c 8f 6e bd
       -0.10669471 -0.13467936 -0.21018024 -0.058242187
000020 11 c3 24 be 7d 49 17 bd 5f 27 25 3c 0f 80 7a bd
       -0.16090037 -0.03693532 0.010080188 -0.061157282
000030 3c b8 7a bb 01 6a 6d be 1e ee 37 be 6e cf 9c bd
       -0.0038256785 -0.23184969 -0.17961928 -0.076567516
000040 8a 6f 87 bd d1 42 b3 bb 99 19 19 be 45 77 90 bc
       -0.06613071 -0.0054706116 -0.14951171 -0.017634997
000050 5a cc 80 bd f9 3f c9 bc c9 6d 16 be 64 5f c0 bd
       -0.06288977 -0.024566637 -0.14690317 -0.09393194
000060 01 8e 95 bd d1 e6 e3 bd 31 a1 9d bd e3 d3 a4 bd
       -0.07302476 -0.11128009 -0.076967604 -0.08048227
000070 7f 65 ae 3c 46 a0 b4 bc d8 a2 07 be dd b9 43 be
       0.021288631 -0.02204908 -0.13245714 -0.1911387
000080 c6 be 21 bd 7c ab 41 bd 6f 4e b9 bc ee 1c ad bd
       -0.039488576 -0.04728268 -0.022620408 -0.084527835
000090 8f 1c fc bd 40 d9 ea bd 9e b1 92 bd 72 91 b2 3b
       -0.123101346 -0.114672184 -0.07162784 0.0054494673
0000a0 56 80 67 be 71 62 12 3d 5d 65 50 bd 71 7e 55 bd
       -0.2260755 0.035738412 -0.050877918 -0.052122537
0000b0 06 89 76 bd 44 11 c6 bd 68 fc 14 bd d4 98 38 3c
       -0.06018927 -0.09671262 -0.036373526 0.011266906
0000c0 e5 36 9b bc 49 d7 03 be 4a 7d e7 bc 74 7a 24 bd
       -0.018947074 -0.12875094 -0.028257985 -0.040155843
0000d0 c6 ca 08 be 4d 36 74 be 32 bd 0d be 16 4a 7e be
       -0.13358602 -0.23848839 -0.13841704 -0.24832949
0000e0 84 cd 73 bd 25 1f 4b be d9 f1 ef bd 93 2b 06 be
       -0.059522167 -0.198361 -0.11716051 -0.1310256
0000f0 ed 17 7f bd b2 cb 3b bd af 5a d3 bd 40 99 e5 bd
       -0.062278677 -0.045848556 -0.10320031 -0.11210871
000100 6e 8c db 3c 83 9f 07 3d 53 23 27 be f8 28 1b be
       0.02680036 0.033111107 -0.16322069 -0.15152347
000110 ec 42 8e bd 1d 81 71 3d 11 48 ca bd b8 f6 ca bd
       -0.06946358 0.058961023 -0.09877027 -0.09910339
000120 cb aa fa bb 6c af bd bd fb a7 cb bd 7f 47 be bb
       -0.0076497546 -0.09261975 -0.09944149 -0.005806863
000130 ae 42 f0 bb 36 ed 35 bd 08 15 3d 3b 77 2f d0 bd
       -0.0073321676 -0.044415675 0.0028851647 -0.10165303
000140 d1 ec 2f be 09 6b c9 3c b6 ec 53 bd f8 e7 ba bd
       -0.17180182 0.024587171 -0.051739417 -0.09126276
000150 52 a3 86 bd df a0 d3 bd 42 94 05 bd fb 9d 63 3d
       -0.0657412 -0.10333418 -0.032612093 0.055570584
000160 8c 2c d8 bd a6 fa 8d bc 44 0c 07 bd b1 2e e3 be
       -0.10555372 -0.017331433 -0.03297068 -0.4437156
000170 a3 6b a7 bd 34 91 30 be 1b 1a 1b be c2 e0 2a be
       -0.08174827 -0.1724289 -0.15146677 -0.16687301
000180 40 69 a3 bd 77 2c 14 3e dc c2 13 be 8a 40 93 bd
       -0.07979059 0.14470087 -0.14429802 -0.07190044
000190 23 c1 ec bd 33 bd 95 be 77 18 30 3c 35 3b e4 3c
       -0.115602754 -0.2924591 0.01074802 0.027860263
0001a0 32 e8 b9 ba 07 1f a0 bd e9 67 0f 3d 14 8f bc 3c
       -0.001418358 -0.07818418 0.035011206 0.023017444
0001b0 d1 28 c7 bd 2e f6 05 3e fb 9b 20 be 3e c7 98 be
       -0.09724582 0.13082191 -0.15684502 -0.2983951
0001c0 a1 ee 9a be 8f 24 5f be 10 a0 b8 bd ed d5 87 3c
       -0.30260184 -0.2179129 -0.090149045 0.0165815
0001d0 fb 79 13 be 6f f1 d9 bc 30 50 17 be 7a 3e 14 be
       -0.14402 -0.026604382 -0.14776683 -0.14476958
0001e0 ba 70 a2 bc 59 bd c1 bd c7 1d 6a 3c 9b c1 50 be
       -0.019829143 -0.09459943 0.014289326 -0.20386355
0001f0 9c 8e bc bd 5e ca 70 bd 80 ea a3 bd 43 5b 85 be
       -0.09206888 -0.058786742 -0.08003712 -0.2604619

weight f4 [6, 128]
000000 11 8c 8c 3c 03 0e 84 bd 7d 7f 85 3c 7a 53 ea bc
       0.017156633 -0.06447985 0.016296143 -0.028604258
000010 dc 16 08 bc ac a1 ef 3c 2c 90 ad 3c 1c 5e f4 3c
       -0.008306231 0.029251896 0.02118691 0.029830031
000020 0b 7e e3 bc a9 17 f7 3b 83 30 96 bb a1 3a 94 bb
       -0.027770063 0.0075406623 -0.0045834198 -0.0045235907
000030 65 15 ad 3c 7d 0d a7 3c 7d f7 8f 3c 8e 45 94 3c
       0.021128366 0.020392174 0.017574066 0.018099573
000040 37 25 42 3d 50 9e b2 bb 13 25 4a bb 70 d7 8b 3d
       0.047398772 -0.005451001 -0.0030844852 0.06828201
000050 e9 69 d5 bd 7f f9 6d bc 9b 74 dd bd 20 0f fa bb
       -0.104205914 -0.014524817 -0.10813256 -0.0076311976
000060 9e bf a1 bd 0b bc 8b bb 7b f5 06 bb 0f 4a c4 38
       -0.07897876 -0.00426436 -0.0020593095 9.359803e-05
000070 65 82 95 3c b2 b8 4c bc 5b 33 bb 3d 0f 57 2a 3d
       0.018250654 -0.012495207 0.09140655 0.04158693
000080 62 92 36 3c b4 18 68 bd 8b 66 cb bb 46 58 ab bb
       0.011143299 -0.056664184 -0.0062072924 -0.005229029
000090 ab ab 59 3a 12 98 1c bd 19 01 a4 bb 4c 2d 90 bb
       0.00083034736 -0.038230963 -0.0050050137 -0.004399931
0000a0 9d a3 60 bd 6f 89 92 bb af bb 43 3c 42 93 dc bb
       -0.054843534 -0.00447195 0.011946603 -0.0067314217
0000b0 02 71 90 ba f8 f7 87 ba ca 76 df 3c 65 dc a2 3b
       -0.0011020007 -0.0010373583 0.027278323 0.0049701207
0000c0 31 87 b8 bb 89 97 c1 bc de d0 0d bd b7 bf 0c bc
       -0.0056313504 -0.023631828 -0.03462302 -0.00859063
0000d0 0f c5 de bd e3 3b 2e bd 6b f9 a5 bc 2a c6 ff bc
       -0.1087743 -0.04253758 -0.020260533 -0.031222422
0000e0 c1 db 77 3c e6 25 d6 bc 4c 72 3d 3c 74 54 7e 3d
       0.015128077 -0.026141118 0.011562895 0.06209226
0000f0 5e 0a a8 3b c6 6b 28 3d d3 8c d5 bb 8c 34 1e bd
       0.005128189 0.041118406 -0.0065170317 -0.03862433
000100 a9 91 a6 bb 9d 49 ba 3c 32 0b b7 3b 5f cb c3 3c
       -0.005083282 0.02274018 0.0055860514 0.023900686
000110 dc 22 d5 bb ec 41 4c 3d d7 87 f1 3a 4f d2 77 bc
       -0.0065043997 0.049867555 0.0018427324 -0.015125825
000120 7d 2b 08 3b 8b 76 08 bb 88 35 ee bb d2 2c 9e bb
       0.0020777874 -0.002082261 -0.007269565 -0.0048271203
000130 1c f4 82 3c f7 2b 93 bc b6 4e ea 3b 15 f9 b7 bb
       0.015985541 -0.0179653 0.0071504964 -0.0056144097
000140 fe 94 ae b9 7b ba 38 3d f5 b9 a8 3c d0 10 18 3c
       -0.00033298874 0.045099717 0.020596484 0.009281352
000150 eb 5b 64 bc c7 22 05 bc 46 3a 85 3a a0 ef 19 bc
       -0.013937931 -0.008125967 0.0010164462 -0.00939551
000160 b1 e0 13 3b e5 4c a9 ba 0a a9 91 3d 62 ed f7 3b
       0.0022564346 -0.0012916593 0.0711232 0.00756614
000170 1a 92 20 bd a3 f9 4d 3c 34 a8 35 3d 0f f3 1b 3c
       -0.039201833 0.012571725 0.044349864 0.009518399
000180 16 a1 09 bc d7 4c 29 bc a0 ad 84 b9 33 30 97 bc
       -0.008400222 -0.010333261 -0.00025306363 -0.0184556
000190 c2 3e a5 bc d8 70 a6 3c f4 22 56 3d 77 7a 53 3c
       -0.020171527 0.02031748 0.052279428 0.012907616
0001a0 c1 9a c3 3b b2 75 3a 3c 59 19 85 bc f9 cf 38 bc
       0.005969376 0.0113806 -0.016247438 -0.011280053
0001b0 89 1e 1d bc c4 02 85 3b 6e 8c 85 bd 90 48 c6 3d
       -0.0095898 0.0040591676 -0.065209255 0.09681809
0001c0 04 76 dd 3b 77 98 8d bc 1a b7 3e bb 7a 32 25 bc
       0.0067584533 -0.017284615 -0.0029100836 -0.010082835
0001d0 c2 13 10 3e cf 05 83 ba a6 18 f4 bb 7a ef 31 bd
       0.14070037 -0.0009996238 -0.0074492274 -0.043441273
0001e0 17 9a d3 3b 91 e4 e7 3c a3 ff 36 3b b1 42 57 3d
       0.006457578 0.028307231 0.0027923367 0.052553836
0001f0 68 ac e8 ba 0c c7 4a bb 5e 6f 90 3b 25 e4 ce ba
       -0.0017751576 -0.0030941395 0.0044078073 -0.0015784545
000200 70 6a 27 3b f5 f3 9a bd 79 c8 a4 b8 fb 95 90 bd
       0.002554562 -0.07566062 -7.85747e-05 -0.070598565
000210 f6 d1 23 bb 2c 07 27 bb 5d 98 21 3d 17 6a 39 bd
       -0.0024996973 -0.0025486453 0.039451946 -0.04526719
000220 b6 f4 dd bc 7b 38 30 3b d9 29 16 bb 96 fd 8f bc
       -0.027094226 0.0026889134 -0.0022913127 -0.017576974
000230 17 5c 16 bd d1 39 b9 bd a5 49 33 bc eb 31 9a bc
       -0.036708917 -0.09044231 -0.010942851 -0.01882263
000240 5f c4 64 bb af 57 a4 bb b2 24 5a 3c 88 ac 11 bd
       -0.0034907085 -0.0050153355 0.013314413 -0.03556493
000250 ae c6 08 3d a6 ac 1f 3b b4 9d 64 bb 18 91 7c 3c
       0.0333926 0.002436438 -0.0034884037 0.015415452
000260 4e 6e b8 3d 2b 5b 8c b8 f1 52 a3 bc a2 8b 9f bd
       0.09005414 -6.6927016e-05 -0.01993701 -0.07790305
000270 fe 40 87 3b 00 c4 99 bc 26 1e a2 bd 47 d9 8d 3d
       0.0041276207 -0.018770218 -0.079159066 0.06926208
000280 6c 44 12 bd 47 08 71 3a 9d 37 b3 bb 3f 51 23 3a
       -0.035709783 0.0009194654 -0.005469276 0.0006230063
000290 ff 53 d5 3a 6b 8e ca 3b 7d 06 b1 bb b5 fe 13 3b
       0.0016275643 0.0061815283 -0.005402385 0.0022582237
0002a0 88 0c 7c bb 0f 56 19 3b 8e 2a f5 bc bc be 45 bb
       -0.0038459618 0.0023397242 -0.029927518 -0.00301735
0002b0 80 37 0a 3c 61 2b 0e bb 67 cd 33 bc 1a 6c 33 3c
       0.008436084 -0.0021693336 -0.010974265 0.010951066
0002c0 00 3b 73 bb 8c dc 14 bd 06 0f 75 bb 01 dd d5 3b
       -0.0037114024 -0.036343142 -0.0037392988 0.00652659
0002d0 66 12 13 bd ff f5 36 bd 74 63 d2 3c 2d e7 aa 3c
       -0.035906218 -0.044668194 0.025682189 0.020862186
0002e0 35 a9 c0 ba ac 9e fc 3c dc 79 d8 3c 57 73 d9 3b
       -0.0014698865 0.03083738 0.026425295 0.006636064
0002f0 64 99 bd bb 49 86 58 bc 42 06 a7 bc 32 9d 00 bd
       -0.005786108 -0.01321561 -0.020388726 -0.031399913
000300 dc 44 94 ba 46 48 82 3d c1 9a ca b9 b3 5b 8a 3d
       -0.0011312026 0.06361441 -0.00038643743 0.067557715
000310 07 23 7e ba 06 44 cb 3d 39 bf d2 3b d8 1b 0f ba
       -0.00096945505 0.09925084 0.006431487 -0.0005459166
000320 fc 72 1b 3c 22 6c c0 bb 0a 82 d8 3c 85 e7 d6 3a
       0.009487864 -0.0058722654 0.026429195 0.0016395902
000330 b1 2b 79 b9 40 85 5d bc a1 51 92 3a fc 21 06 bc
       -0.00023762767 -0.013520539 0.0011163243 -0.008186813
000340 5e c1 c0 3c eb 35 18 bd 54 fc f5 3b 46 01 4e bb
       0.023529705 -0.037160795 0.0075068865 -0.0031433864
000350 cd e6 fd bc eb 98 8e b8 14 ed 87 3c 78 72 08 39
       -0.030993843 -6.799571e-05 0.01659254 0.00013012614
000360 1a e7 03 bd 53 1b fe b8 19 06 f4 3c af dd 4e bc
       -0.032202817 -0.00012116753 0.029788064 -0.012626096
000370 f7 6f f7 3c cf c9 15 3d de 17 9d 3a dd 37 a5 bc
       0.030204756 0.036569413 0.0011985262 -0.02016824
000380 cc a5 3c 3c fa 41 fe 3d 46 7e 9f 3c 8c ec d8 3c
       0.011514138 0.12414928 0.019469392 0.026479982
000390 2f 64 bf 3b 27 73 a8 bd 1c 2c c0 3c 57 f7 51 bb
       0.0058408002 -0.082250886 0.023458533 -0.0032038295
0003a0 2d 6b ed 3c d2 77 f5 3b de 79 e4 ba f4 66 6d bc
       0.02898177 0.0074910903 -0.0017431339 -0.014489878
0003b0 e4 4e 9e bc 3d 8c 1a bd 2b 49 79 3c 40 54 11 3d
       -0.019324727 -0.037731398 0.0152151985 0.035480738
0003c0 8c a1 00 3d 8e dd 37 3c db 4b 0c bd d4 c2 60 39
       0.031404063 0.011222256 -0.03425203 0.00021434884
0003d0 ca 86 97 3a bf f7 e4 bc 2f ff 60 bc f1 30 f8 bc
       0.0011560556 -0.027950166 -0.0137327155 -0.030296775
0003e0 e2 e9 39 3c 10 e4 da bc 91 ac cd 3b 7c 8d 6a b7
       0.011347266 -0.026720077 0.006276675 -1.3980429e-05
0003f0 ed 29 e7 39 34 d4 a2 3a c1 40 57 3b e6 d0 3d 3e
       0.0004409099 0.0012422861 0.0032844993 0.1853672

bias f4 [6]
000000 1f 05 50 3e 57 b7 f8 3d 0e f9 59 be 84 a9 2c be
       0.20314454 0.12144344 -0.21286413 -0.1686154
000010 38 58 ec bd 28 00 78 3e
       -0.11540264 0.2421881
